python/finalModels/myCNN_with_Out_Notes.pth (torch_old, 179625 bytes, 10 tensors)

weight f4 [6, 1, 5]
000000 a6 9f 85 be f0 ba 65 3d 26 d4 56 be 80 4f 82 bf
       -0.26098365 0.05608648 -0.20979366 -1.0180511
000010 92 31 5c bf b8 8f 68 b7 55 ac 77 3e d8 b8 75 be
       -0.8601314 -1.386174e-05 0.24186833 -0.23996294
000020 dd 7f e6 3d ed 3a 26 be 01 c1 80 3e 0a 42 6d be
       0.11254857 -0.16233416 0.2514725 -0.23169723
000030 fb 08 9d 3e 87 99 d5 3d 1f ed 9e 3e a5 be 6f 3e
       0.30670914 0.10429674 0.31040284 0.23412569
000040 1c 3c 21 3e 5d 6c 71 3e fa 6a f8 3d 2c f9 73 bd
       0.15745586 0.23576494 0.12129779 -0.0595638
000050 15 ee 78 bf d2 98 d4 be 9e e3 2e 3e 0b 1f c3 bd
       -0.97238284 -0.41522843 0.17079017 -0.09527405
000060 55 27 80 bf a7 cb 38 be 51 c5 9e 3e 30 06 65 be
       -1.0012003 -0.18046437 0.31009915 -0.22365642
000070 95 5e ce be a4 6f 76 3e
       -0.40306535 0.24066025

bias f4 [6]
000000 d1 1c 39 3e b6 ae a7 ba 32 4a b3 be c3 56 e4 be
       0.18077399 -0.0012793157 -0.35017544 -0.44597444
000010 54 23 91 bb b0 72 f5 3c
       -0.0044292603 0.029961914

weight f4 [16, 6, 5]
000000 91 04 c5 3d 2a eb 2c be 07 f0 8b 3d 18 92 08 3d
       0.096200116 -0.16886583 0.06832891 0.03334245
000010 53 78 8d 3d 2e fe 8d 3d aa af 3e bc 91 35 0b bd
       0.06907716 0.069332466 -0.011638561 -0.03398663
000020 22 93 05 3b bc 67 75 3d 87 41 aa 3c 2f 96 cd bd
       0.0020381887 0.059913382 0.020783199 -0.10038411
000030 a1 70 3f be ef 11 06 be 4f 12 07 be fb 0c c8 3d
       -0.18695308 -0.13092779 -0.13190578 0.09768101
000040 87 0e 40 3d 4b 21 00 3d 89 e7 92 be 0e 8c 24 be
       0.046888854 0.03128175 -0.28692272 -0.16069052
000050 b6 17 cb bd ea 5c 16 be 4c 4a 9a 3d 31 7a 85 be
       -0.09916632 -0.14683881 0.07533702 -0.26069787
000060 e0 dd 0f bd 9e 32 55 be 34 24 34 be 46 ec 97 bc
       -0.035123706 -0.2082009 -0.17591935 -0.018545281
000070 66 2a 7d be 37 6e 72 bd 37 0b 25 be da e6 00 3d
       -0.24723205 -0.05918714 -0.1611756 0.031470157
000080 d0 97 5d be 0b 15 91 3d e0 e5 18 be 56 da 49 3d
       -0.21639943 0.07084092 -0.1493144 0.049280487
000090 53 53 9e be 8a 6b 1d 3d 54 79 46 be 3d 4c db 3d
       -0.30922946 0.038432635 -0.1938222 0.10707901
0000a0 8d c4 ce bd f3 b5 ef bd 79 2c 02 be 30 60 59 bd
       -0.10096083 -0.11704626 -0.12712277 -0.053070247
0000b0 cf 2f 25 3d 25 5c e0 bc 06 f5 a8 be 79 bb 01 be
       0.040328797 -0.027387688 -0.32999438 -0.12669171
0000c0 35 64 dd bd 1b 55 66 3e 94 a5 6a be 44 2f 61 be
       -0.108101286 0.22493403 -0.22914726 -0.21990687
0000d0 de e2 c3 bc 7a b0 f4 3d 86 f1 50 be 47 25 c1 bc
       -0.02391189 0.11947723 -0.20404634 -0.023577346
0000e0 0f 8e 4b be ad 16 d1 bd 69 2c 24 be e6 88 af bc
       -0.1987841 -0.10209403 -0.16032566 -0.021427583
0000f0 1d 9b 83 be 00 9e d8 bd f7 a4 7e be 2d fa 15 be
       -0.2570428 -0.10577011 -0.24867617 -0.14646216
000100 9d 80 35 be 2b c2 a6 bc 23 67 07 be 73 66 b5 be
       -0.17724843 -0.020356258 -0.13222937 -0.35429725
000110 61 d0 8e bd 98 b7 23 bd b3 18 8a 3d 71 35 84 be
       -0.06973339 -0.03997001 0.06742992 -0.25822023
000120 59 9e 56 be b0 de ec bd 6b a9 cb bd bd 9d 44 be
       -0.20958842 -0.11565912 -0.09944423 -0.19200797
000130 3d d4 66 bd 42 a1 0e be ed 1c 14 be c5 6e 37 3e
       -0.05635475 -0.13928702 -0.1446416 0.17913349
000140 3a 52 42 be c1 e3 88 bb 75 55 b9 be 9d 4b bd 3d
       -0.1897668 -0.004177541 -0.3619801 0.09242938
000150 1b fd c4 3c 88 90 2f be 82 b3 cc be 9a 8d a4 bd
       0.024046471 -0.17144978 -0.39980704 -0.08034821
000160 06 ec b6 be 23 c6 44 3d b3 f7 a3 bd cf 13 1a 3d
       -0.35726947 0.04804052 -0.08006229 0.037616547
000170 6a e0 d5 ba 4a c8 15 3e 1e 44 10 3d 73 eb b9 3d
       -0.0016317491 0.14627185 0.03522121 0.090781115
000180 d0 e9 7c be e4 fa 2a be bd d3 dc 3d 39 95 55 bd
       -0.24698567 -0.1669727 0.10782573 -0.052144263
000190 31 f9 8c be fc 63 46 be e9 06 df 3d d1 d0 03 3e
       -0.27533868 -0.19374079 0.1088999 0.12872626
0001a0 25 15 a1 bd ef 21 42 be 6d 63 1a be 73 9b 52 be
       -0.07865361 -0.18958257 -0.1507699 -0.20567112
0001b0 04 2b ee bd 41 51 0f be 5e 6a 4f be d5 d3 78 be
       -0.11629298 -0.1399584 -0.2025542 -0.24299558
0001c0 d2 8e dd 3d 57 ee 8f bd 35 9f a9 3d 4b 69 6c be
       0.108182564 -0.070278816 0.082823195 -0.23087041
0001d0 f3 55 84 3d a4 55 46 be 62 40 b1 bd b5 f0 6f 3d
       0.06461706 -0.19368607 -0.08654858 0.058579165
0001e0 2b 9a 97 bd 1e de fe bc 3d 02 59 be 6e 79 2b be
       -0.07402452 -0.031111773 -0.2119226 -0.1674554
0001f0 ef 55 61 bd 85 99 1a be 77 3a 19 3e 8f e5 c0 3d
       -0.055013593 -0.15097626 0.14963709 0.09418785
000200 13 6a 5c 3d 5a b3 32 be 34 43 ef 3c 72 d6 a8 bb
       0.053812098 -0.1745123 0.02920685 -0.005152517
000210 57 c0 7c be 0f c3 36 be d5 09 0b be 5f e9 43 3e
       -0.24682747 -0.17847846 -0.1357797 0.19131993
000220 be 20 3d bd af 71 27 be c4 8e a3 bd 3f 1c 02 3d
       -0.046173804 -0.1635196 -0.07986215 0.03176522
000230 0c d4 2e be fc d5 01 3e f9 30 3d 3b 9c b9 b4 3c
       -0.17073077 0.12679285 0.0028868301 0.022061162
000240 da dd 0f 3e 49 cc 39 be 0d 54 20 3d cb 1b c3 3c
       0.14049473 -0.18144335 0.039142657 0.023816964
000250 a8 13 24 be 63 61 99 ba 7e 7c 3f 3e df a1 54 3e
       -0.16023123 -0.0011701997 0.18699834 0.20764874
000260 8c f3 5e 3e 50 90 5f 3e 5e 18 20 3e 4d 13 c3 bd
       0.21772593 0.21832395 0.15634295 -0.09525166
000270 97 a8 f6 bd 47 8a bb bd 4b 18 07 be 2d 24 11 3d
       -0.12043875 -0.09157234 -0.13192861 0.03543489
000280 22 2e 2a 3e d9 1c b1 bd 0e 78 8d 3d 54 67 8d bd
       0.16619161 -0.086480804 0.06907664 -0.06904474
000290 77 ea e2 bd 16 2f f2 bb 43 c1 16 be 25 ea 0e be
       -0.11079877 -0.007390867 -0.14722161 -0.13956507
0002a0 b0 ca d0 bd bb a1 13 3d f9 9f 12 bd d0 14 77 be
       -0.101949096 0.03604291 -0.035797093 -0.24129033
0002b0 05 61 ce bd 5d f7 db 3d 8a 97 d1 3d f6 2d a1 bd
       -0.10077099 0.1074054 0.10233982 -0.078700945
0002c0 1e 97 a1 3d 49 fe 01 bd 04 00 3d bd 5d f9 fa bd
       0.078901514 -0.031736646 -0.046142593 -0.122545935
0002d0 58 50 90 be bf 9d b3 3e 20 03 2a 3d ca 51 ce 3c
       -0.28186297 0.35081288 0.041506886 0.025185484
0002e0 6f ff 84 be a5 bd 0f 3d 70 d0 14 3e d5 bd 36 be
       -0.2597613 0.03509297 0.14532638 -0.17845853
0002f0 dc 71 aa be e3 25 ee bd 41 ba 6a be 52 80 81 3d
       -0.33289993 -0.1162832 -0.22922613 0.06323303
000300 1f f4 10 3e b5 ed c3 be cd 08 b0 3d 3c 64 0e bd
       0.14155625 -0.38267294 0.085954286 -0.03476356
000310 76 84 57 be 82 9b b8 bd 47 53 f4 bd e6 69 9f be
       -0.21046624 -0.09014036 -0.119299464 -0.31135482
000320 fe a6 d8 bd 7c b5 28 3e b4 17 cc 3c 1d e4 9f 3d
       -0.10578726 0.16475481 0.024913646 0.07807181
000330 e8 a6 64 be c3 0a 10 3e d5 ce 5b 3e e3 0d 2f bd
       -0.22329295 0.14066605 0.21465619 -0.042737853
000340 7f cd 12 be 96 95 43 be d1 24 6f 3d db b7 f2 3d
       -0.14336203 -0.19100031 0.05838472 0.11851474
000350 4f c8 17 3e 67 a5 05 be 3a d4 7f 3d 4e f1 0d 3e
       0.14822505 -0.13051377 0.062458254 0.13861582
000360 f6 45 24 be 29 7d 6f 3c af d0 1e 39 46 ba e5 bc
       -0.16042313 0.014617243 0.00015145795 -0.028042924
000370 73 72 2f be a2 ea 0a 3d 00 49 74 bd ac 14 65 3d
       -0.17133503 0.03391517 -0.05963993 0.055927917
000380 98 b9 96 bd 4b d3 12 be e5 e3 f6 bd 50 66 a0 bd
       -0.07359618 -0.14338414 -0.12055186 -0.078320146
000390 f0 23 be bc fe bc dd bd 9f f0 d5 3c 0d bb a9 3d
       -0.023210496 -0.10827063 0.026115714 0.0828763
0003a0 6f 9f 0b be 2c 60 80 bd 08 01 e0 3c 22 e4 08 be
       -0.13635038 -0.06268343 0.027344242 -0.13368276
0003b0 77 08 e6 3c b0 12 a5 3d 27 7a 26 be ba 1d 89 3d
       0.028080208 0.08060205 -0.16257535 0.06695123
0003c0 a2 54 b0 bd 7d bf c4 bd 4a 08 79 3d a4 d3 12 be
       -0.086098924 -0.09606836 0.06079892 -0.14338547
0003d0 84 43 a6 3d f1 a4 b2 bd 09 f3 04 bd 5f 81 8f bd
       0.08118346 -0.08722866 -0.03245834 -0.070070975
0003e0 89 8c 1f 3d ad a8 bf 3d aa 4a 17 3d 18 aa 15 3e
       0.038952384 0.09358344 0.03693644 0.14615667
0003f0 60 d4 93 3d 8f ee 60 3d dd f6 09 bd 00 13 04 3e
       0.07218242 0.054915007 -0.033682693 0.12897873

bias f4 [16]
000000 85 c5 9b bc 88 23 34 be 3e c9 97 3c 81 98 36 be
       -0.019015083 -0.17591679 0.018528577 -0.17831613
000010 35 5e 47 3e ce 5c 89 3e 72 d1 63 3c 84 e3 ed 3d
       0.19469531 0.26828617 0.013904916 0.11615661
000020 b6 6b de 39 57 de 88 3e 6b f2 31 bd c0 1e 44 3e
       0.0004242339 0.26732132 -0.04344408 0.19152355
000030 17 1e 21 be 33 ba c0 bc 9b 27 f7 3d 9a db ea 3a
       -0.15734135 -0.023526287 0.12068101 0.001791823

weight f4 [128, 256]
000000 66 68 eb bd 31 b3 80 bd 31 71 87 3c 9c 2b b8 3c
       -0.11494522 -0.06284178 0.016533466 0.022481732
000010 15 77 c0 3e 1a 93 92 bd 58 7d 4f 3d a2 06 19 3e
       0.37590852 -0.07156964 0.050656646 0.14943936
000020 37 5e 6b 3e 77 93 0d be 21 cc 0d be b3 ab 92 3c
       0.22985159 -0.13825785 -0.138474 0.017904138
000030 c6 b6 32 bc 0a 07 01 3d 4b 44 07 3c 64 2a 32 bd
       -0.010907834 0.031500854 0.008256028 -0.043497458
000040 f9 07 67 bd 0b 60 22 3d 35 69 3c 3e b5 92 0f 3e
       -0.056404088 0.039642375 0.18399508 0.14020808
000050 3a d5 da 3d b5 35 13 3d 85 96 1d bd 86 6c aa 3c
       0.10685201 0.03593989 -0.038473625 0.020803701
000060 d2 f6 b3 3e 44 93 22 3d 0a df 53 3d ad e7 b4 ba
       0.35149246 0.039691225 0.05172638 -0.0013801955
000070 47 b7 f7 bc fe 38 ed 3e 3f fa 27 bd f8 a0 4e bc
       -0.03023876 0.46332544 -0.041010138 -0.01261162
000080 ea 8c 4f 3d 17 6e 66 bc ff ea 6e 3e 74 39 4e 3f
       0.050671495 -0.014064333 0.23331831 0.80556417
000090 d2 da e3 3c 28 88 07 3d 68 9f a6 bd d0 a2 d9 3c
       0.027814303 0.033088833 -0.08135873 0.026566893
0000a0 82 aa 2d 3e 86 5e 4b 3d 94 62 1f bd a1 a6 9f bd
       0.16959575 0.04965069 -0.03891237 -0.07795454
0000b0 fa 9b 3a bc 62 20 1b 3f a4 f3 34 3c 24 b8 fd 3c
       -0.011389727 0.6059629 0.011044417 0.030971594
0000c0 0c 5e a2 bc eb ba e7 3d 9c 46 04 3f 94 bf 4a 3f
       -0.019820236 0.11314949 0.5167024 0.79198575
0000d0 78 02 32 3d 48 74 72 bd 83 80 ac bd 90 c6 fe bb
       0.043459386 -0.059192926 -0.08422949 -0.0077751353
0000e0 0c b6 6a 3d 90 8f 49 3d 70 16 a3 3c 05 4f b6 bd
       0.05730252 0.049209177 0.01990816 -0.089017905
0000f0 c2 71 e7 bc 01 54 97 3d 08 1c 10 bc 5c 0c b3 bc
       -0.028252486 0.07389069 -0.008795746 -0.02185648
000100 b9 35 24 be a6 05 3c 3b 98 7e af bd 69 91 84 be
       -0.16036119 0.002868989 -0.08569068 -0.2589219
000110 10 50 27 3e 46 4e 4b be a4 a5 5b 3e 8a c6 33 be
       0.16339135 -0.19854078 0.21449906 -0.17556205
000120 ca 75 fb 3c 8c 0a 19 bd ac d8 3d bd 3c 9f 0e 3c
       0.030695815 -0.037363574 -0.046349213 0.008704957
000130 2a 1e 57 3d b8 7a b4 bd 68 09 f7 3d 26 4b 05 bd
       0.052519 -0.08812469 0.12062341 -0.03254237
000140 83 10 85 be 1b 6d 9e be 38 aa 64 be 38 09 da be
       -0.2598916 -0.30942616 -0.22330558 -0.42585158
000150 ed 6a 72 be 4d cc 8f be cb 8f 95 be d7 79 72 be
       -0.23673601 -0.28085557 -0.29211268 -0.2367929
000160 cc e4 6f 3d b2 68 90 bd b8 33 df bb 20 d5 f2 bd
       0.058567807 -0.07051219 -0.0068115853 -0.118570566
000170 67 a3 01 3e b5 e0 36 bd 03 8a 06 3e 18 32 70 3d
       0.1265999 -0.04464789 0.13138585 0.058641523
000180 66 99 cf 3c 21 67 1e bd 1e 2f b5 3d 2e bc ee 3e
       0.0253417 -0.03867257 0.088468775 0.46627945
000190 25 1e b6 bd 22 e9 03 be 06 2d 99 3e f4 ad 9e 3e
       -0.08892468 -0.12881902 0.29917163 0.3099209
0001a0 0d 43 73 bd c1 73 9d bd 97 fb e1 bd be 7b 18 3d
       -0.059390116 -0.07688094 -0.11034315 0.037227385
0001b0 a4 4a ad 3e a4 77 4b 3b 0e 76 9e bc 6f 08 f9 3c
       0.3384601 0.0031046653 -0.019343402 0.03039953
0001c0 1e 2a 51 be 0d 6c b2 bd 24 3a 1d bd cc 46 c3 be
       -0.20426223 -0.08712015 -0.038385525 -0.3813995
0001d0 19 67 86 be d1 ee 45 be 01 48 25 be 81 cb 0e be
       -0.26250532 -0.19329382 -0.16140749 -0.13944818
0001e0 8e a3 41 be 1b 39 2f bd 3d 07 a9 bd ba 0b 91 3c
       -0.18910047 -0.04277907 -0.08253334 0.017705787
0001f0 a9 c3 e3 ba 78 fb 81 3e fb 71 8f 3d 5b c5 85 bc
       -0.0017377037 0.25387168 0.07004162 -0.016329458
000200 d4 f5 41 3e 0a 6a 83 3e b1 c2 5c 3c a9 00 a2 3d
       0.18941432 0.2566684 0.013474152 0.07910282
000210 27 ff 94 3d 26 64 0a 3e 91 b0 24 3e aa 56 2d 3d
       0.07275229 0.13514766 0.1608298 0.042318977
000220 92 ca ba 3c 92 8e 43 bd 76 62 f4 bd 85 54 d4 bc
       0.022801671 -0.047743388 -0.119328424 -0.025919208
000230 e7 f3 33 bd 38 2b 8c bd 4b c7 ad bd e4 fd 39 bd
       -0.043933775 -0.06844181 -0.08485278 -0.045408145
000240 6c 21 5e be 4e 6d 32 bd 22 05 f5 bd 45 5e 8c 3d
       -0.21692437 -0.043561272 -0.1196387 0.06853918
000250 5c 1b 94 be 15 7f 99 be 69 64 14 3e 40 31 31 be
       -0.28927124 -0.29979768 0.14491428 -0.17303944
000260 86 36 f6 bd eb 9c 48 bc 51 21 b0 bc e3 2a d3 bd
       -0.12022118 -0.012244443 -0.021500262 -0.10310914
000270 0d 4b c8 bc 63 d2 ad 3e 26 19 27 bd 96 68 c3 3c
       -0.02444985 0.33949575 -0.040795468 0.023853581
000280 ab ef 95 bb d6 d0 c8 3d fb 33 49 3d f0 19 45 3e
       -0.00457569 0.09805457 0.049121838 0.19248176
000290 7a c2 bb 3c 19 23 76 3b 23 7c af 3d 02 3a aa 3d
       0.022919882 0.003755754 0.08568599 0.08311845
0002a0 55 27 8d 3d 53 a1 d9 bd cf 7d 1e bd a5 19 77 bc
       0.068922676 -0.10626473 -0.0386942 -0.015081798
0002b0 9d c6 80 3e 59 c4 3b bd af ce 00 bd 1e 36 34 bd
       0.2515153 -0.04584155 -0.03144711 -0.043996923
0002c0 a8 24 5a be ed 3c 35 be 3c e6 85 bc cc c9 b4 bd
       -0.21303046 -0.17699023 -0.016345136 -0.08827552
0002d0 a2 1f 40 be 24 27 80 be ef 1f dc 3c 6a 22 f6 3d
       -0.18762067 -0.25029862 0.026870696 0.12018283
0002e0 84 42 fd bc f0 b5 a7 bd 5d af d5 3c 32 ee a3 bd
       -0.030915506 -0.08188999 0.026084596 -0.080044165
0002f0 5e 4f f2 3e 8e b1 db bc 98 db d5 3c 9a 1d 4b 3d
       0.47326177 -0.026818063 0.026105687 0.049588777
000300 e4 52 05 bd 2a 3e 22 3d 10 49 82 3c f2 16 49 bd
       -0.032549754 0.039610066 0.01590398 -0.049094148
000310 18 91 1b bc 48 6a d3 3c c0 f6 e0 bc 63 50 8a bc
       -0.009495042 0.025807515 -0.02746141 -0.016884034
000320 c2 41 21 bd d0 59 8f bc 40 97 5b 3c 72 ef 06 3d
       -0.039369352 -0.01749888 0.01340276 0.032943197
000330 00 2b 9f bb ce 11 d3 bc d8 83 56 bc 1c d4 3d bd
       -0.004857421 -0.025765326 -0.013092957 -0.04634486
000340 0e 91 14 bd ce 79 23 bc ae c2 01 bd 29 f2 45 3c
       -0.036271147 -0.009977771 -0.0316798 0.012081661
000350 0a b3 79 3d b2 bc d3 3c f2 66 1e bd e0 55 c7 bd
       0.06096176 0.025846813 -0.038672395 -0.09733176
000360 9b 56 5c bd e4 89 58 bd 36 a3 1f 3d 44 23 df bc
       -0.05379353 -0.052865878 0.03897401 -0.027238496
000370 ec c2 42 3d f6 8e 37 3d b9 71 5a 3e d1 f4 5f 3d
       0.047549173 0.044814073 0.21332444 0.054676834
000380 69 9c 52 be 08 8b 87 be 9c 4b 72 be c7 f0 cb be
       -0.20567478 -0.2647326 -0.23661655 -0.39832136
000390 51 30 8f be 92 99 71 be 0c db b1 be 49 76 3c be
       -0.2796655 -0.23593739 -0.34737432 -0.18404497
0003a0 56 67 21 be df 3f c4 bd 90 18 e2 bd 98 60 54 3b
       -0.15762076 -0.09582495 -0.11039841 0.0032406207
0003b0 6d 6f 87 3f 8e e3 93 bb 43 d2 3e 3d ab 75 04 3d
       1.058088 -0.0045132106 0.04658724 0.03233878
0003c0 71 2b 1c ba fa 77 0d 3c 81 b7 3a bd 74 4f 48 3e
       -0.0005957401 0.008634562 -0.04558516 0.19561559
0003d0 21 9b c6 3e 24 31 be bc d6 c1 44 bd 02 49 0a 3e
       0.3879023 -0.023216791 -0.04803642 0.13504413
0003e0 d0 dd 74 3e 16 fa b4 bc fb 45 aa bc 55 4a bb 3c
       0.2391274 -0.022091907 -0.020785322 0.022862593
0003f0 92 98 89 3c 5a 7d 79 bd de 81 63 bd ac 53 a9 3b
       0.016796384 -0.06091056 -0.055543773 0.005167445

bias f4 [128]
000000 17 70 0c bd c2 66 7d 3c ae cd 79 bd 68 4c 84 bd
       -0.034286585 0.015466394 -0.060987167 -0.06459886
000010 38 9b 2e 3e 19 0f 79 3a 52 4d 8e bc 22 0f 6f 3d
       0.17051399 0.0009500846 -0.017370854 0.05836404
000020 d1 f6 f7 bd b1 b2 37 3d e3 f3 bb bd e7 9b 42 bd
       -0.12107623 0.044848148 -0.09177377 -0.04751196
000030 52 0b 9f bd 7b 09 24 3c e9 45 13 be 8a 33 c8 3d
       -0.07765831 0.010012026 -0.14382137 0.09775455
000040 82 6a aa bc dd f8 e0 bd 39 25 25 bd 8a f4 ed bc
       -0.02080274 -0.10984967 -0.0403187 -0.02904727
000050 2f 6e 3d 3d b1 89 e2 3c e8 dd c6 bd 19 12 c8 bb
       0.046247657 0.027653547 -0.09710294 -0.006105673
000060 a4 b4 af bc 63 dd 21 3e b5 17 a2 bd 73 c7 84 bd
       -0.02144844 0.15807109 -0.07914678 -0.064833544
000070 77 61 96 bd e1 9a 84 bb cc a3 f1 bd 34 e8 b7 b9
       -0.07342809 -0.0040467833 -0.1179882 -0.00035077485
000080 fa 4f fe 3d b0 36 91 bd 14 31 4e 3c f3 b8 a5 bd
       0.12417598 -0.07090509 0.012584943 -0.08091917
000090 76 bc 5d bd e3 7d 61 bc 1a 60 0b 3a 22 72 01 bd
       -0.05413481 -0.013762924 0.00053167494 -0.031602986
0000a0 d1 32 76 3b 99 7f 67 3c bb 44 81 bd 33 b2 3b 3d
       0.003756691 0.014129543 -0.063119374 0.04582424
0000b0 9e 5b 04 3d b4 ee a3 3d 0b fb 92 3c 53 41 ff ba
       0.032313935 0.080045134 0.017941972 -0.0019474424
0000c0 30 1e c8 bd 44 68 24 3d 8d fa dd 3c 80 07 8e bd
       -0.09771383 0.040138498 0.027097011 -0.06935024
0000d0 ea 69 32 3a 03 b5 b7 bd 92 f5 a5 bc fe 84 d3 bd
       0.00068059436 -0.08970072 -0.020258699 -0.103281006
0000e0 c2 d7 98 3e 4d 0a 73 bd d5 d5 9e 3e 60 78 12 be
       0.2985211 -0.059335995 0.31022516 -0.14303732
0000f0 83 82 07 bd cd aa 1f bd 33 74 80 bd 06 9f 2a be
       -0.03308345 -0.038981248 -0.06272163 -0.16662225
000100 13 2e 95 3d 33 ca 1c 3d 13 d9 3f 3d 0f 5f 8d bd
       0.072841786 0.03827877 0.046837877 -0.069028966
000110 35 a4 07 bd 94 07 01 3d d7 20 81 bd 91 22 b7 bb
       -0.033115584 0.031501368 -0.06305092 -0.0055888374
000120 84 cd ec 3c 46 f4 9f 3c 71 ca bc 3c a9 73 78 3d
       0.028906591 0.019525658 0.02304575 0.060657177
000130 f0 cb 15 3e c3 67 00 be 8a 22 7e bd b0 0d e8 3c
       0.14628577 -0.12539582 -0.062044658 0.02832684
000140 58 de f1 bd 2f 2b 36 bc 39 e7 09 bc d9 6b ab bd
       -0.11809987 -0.011118694 -0.008416944 -0.0837018
000150 f6 dd 99 bd dd 2a 3c bd 15 32 61 bd 71 83 8d 3e
       -0.07513039 -0.045939315 -0.054979403 0.27639344
000160 c4 9a 9c bd 97 16 f1 3c fb 99 81 bd b1 d3 27 bd
       -0.07646707 0.029429717 -0.063281976 -0.04097337
000170 fd 9f 11 bb 3b 9f c1 3c 90 17 11 be a6 93 2d bb
       -0.0022220605 0.023635497 -0.14169145 -0.002648571
000180 95 d4 4b be 11 60 7a be 7e 23 1d bd 27 ad f7 bb
       -0.19905312 -0.24450709 -0.038363926 -0.007558483
000190 01 ff 25 bc dd 17 77 bc d7 5d 8d 3d fe b8 25 bc
       -0.010131598 -0.015081373 0.06902664 -0.010114906
0001a0 36 08 ab bd 29 b0 03 3d 53 66 96 bd 80 9a 53 3e
       -0.083511755 0.03215042 -0.073437355 0.20664406
0001b0 b8 d1 b5 bd 9a 41 b3 bd 59 5e 24 bd 4b 71 b0 3c
       -0.08877891 -0.08752747 -0.04012904 0.021538397
0001c0 44 04 4a be d9 d0 88 bd 38 6c 57 bd c3 5d 9c 3c
       -0.1972819 -0.066804595 -0.05259344 0.019087678
0001d0 3f f5 2b bd d3 fd 94 3b 5e 8a 93 bd ee a7 49 3e
       -0.04198193 0.00454686 -0.07204126 0.19692966
0001e0 f2 4d 51 bc 15 3c 08 bd e3 92 eb bd 77 29 5d 3e
       -0.012774931 -0.033260424 -0.11502626 0.21597849
0001f0 90 1b d8 be 8c cf 05 bd 31 ae da bc 50 95 0b 3e
       -0.4220853 -0.032668635 -0.026694389 0.13631177

weight f4 [64, 128]
000000 5b 69 42 bd ae 11 fc bc 80 6c 24 bb 85 6a 20 bd
       -0.047463756 -0.03077015 -0.0025089085 -0.039164085
000010 e0 20 15 3d 55 7f ac 3d 3d 99 ae 3d 5c 3e 90 bc
       0.036408305 0.08422724 0.08525322 -0.01760786
000020 9e 68 2a 3d 63 66 9d 3d 10 71 ba 3b 5e b6 6c 3d
       0.041603677 0.07685544 0.0056897476 0.057791106
000030 6d 6d b0 3d be 75 03 bd 28 aa 6d 3c 80 09 ca 3b
       0.08614621 -0.03209471 0.0145059 0.0061656833
000040 a0 6b e6 bb 8c bc 41 bd a0 c2 aa 3c f4 86 8a 3c
       -0.007031873 -0.047298953 0.020844758 0.016910054
000050 ae 6f 22 3d c0 e4 ce bb 34 70 b9 3c e4 fd c6 3c
       0.039657287 -0.00631389 0.02263651 0.024290986
000060 8a 58 62 3d 90 13 87 bb 26 3b 3f 3d 66 de 28 3d
       0.05526022 -0.004122205 0.046687268 0.04122772
000070 b0 a5 de 3b c0 6c 86 3c 10 1e 8e 3c 2e b7 01 3d
       0.006794654 0.016409278 0.01734832 0.031668834
000080 d8 ef 18 3c 54 dd 9e bd 6a 6b 61 3d c2 be 5b 3d
       0.009334527 -0.07757059 0.05503408 0.053648718
000090 1a e8 22 3d e8 55 0d bc d4 b0 fb 3c 28 e5 72 bd
       0.03977213 -0.008626439 0.030723967 -0.05930057
0000a0 8a 02 e3 bc bd 56 94 bd ed ab a2 3d 70 cb 8a bc
       -0.027711172 -0.072431065 0.079429485 -0.01694271
0000b0 7c 8a cb 3c 20 bf 62 bd 30 ea 6d bd 58 e2 ae bd
       0.024846308 -0.055358052 -0.058084667 -0.085392654
0000c0 89 65 39 bd 6f dd 92 3d 98 80 95 bd ca 05 1b 3d
       -0.045262847 0.07171141 -0.07299918 0.037847318
0000d0 6d 93 3c bd 06 1f 21 3d 56 2b 5c bd e2 ad 67 3d
       -0.046039034 0.039336227 -0.053752266 0.056562312
0000e0 b2 c1 21 3d c2 da 34 3d 2c f6 9a 3c a0 c6 e4 3c
       0.039491363 0.044153936 0.018916212 0.027926743
0000f0 00 0e a6 39 64 49 a3 bd 77 2e 36 bd 80 ed bc bb
       0.00031672418 -0.079729825 -0.044477906 -0.005765617
000100 24 4b a6 3c 9b 58 9a 3d a9 b6 95 3d 5d be 31 bd
       0.020299502 0.075364314 0.0731023 -0.043394435
000110 1e 8c 9d bd 5c 43 2f bd dc bd 81 bd 5a b0 d7 bc
       -0.07692741 -0.04278885 -0.06335041 -0.026329208
000120 60 6e 3e bc 24 89 f7 3c ac 8a cc bc 50 8f 96 bd
       -0.011622995 0.030216761 -0.024968468 -0.073515534
000130 18 c7 da 3c e0 9d 87 3b f4 12 c2 bc b2 be 65 3d
       0.026706263 0.004138693 -0.023690678 0.056090064
000140 08 e3 26 3c 00 fa 34 bc 28 37 7c bd 58 d5 1a 3c
       0.010185964 -0.011045933 -0.06157604 0.009450279
000150 24 4c 05 3d f6 45 4e bd a8 74 9e 3c 84 cd 80 bc
       0.032543316 -0.05035969 0.019342735 -0.015722997
000160 af 02 92 3d 38 e5 a4 bd b1 c7 aa 3d 06 f8 78 3d
       0.07129418 -0.080515325 0.08338869 0.06078341
000170 a3 96 91 bd e4 b2 9b bd b2 76 98 bd 92 17 22 3d
       -0.0710881 -0.0760248 -0.07444514 0.03957326
000180 b0 98 a9 bc 4e f8 7f bd a9 40 08 bd 4e ba 5f 3d
       -0.02070269 -0.06249266 -0.03326479 0.054621033
000190 91 1a 62 bd cc e2 aa bc 3f 2d 3b bd b2 3c 86 bd
       -0.055201117 -0.020860098 -0.045697447 -0.065545455
0001a0 d6 7b ad bd b9 f6 95 bd 76 1f 1d bd 6b d3 06 bd
       -0.084708855 -0.07322449 -0.03836008 -0.032916468
0001b0 b7 13 5e bd 80 d7 6d bc 62 db 94 bd ad a9 a6 3d
       -0.05421802 -0.014516711 -0.072684065 0.08137832
0001c0 99 a7 67 bd 42 b7 4a 3d e0 df aa bd 00 14 5b bc
       -0.056556318 0.049491175 -0.08343482 -0.013371468
0001d0 34 1b 9b bd 83 fa 8b 3d 7a a5 1e 3d 00 48 39 3b
       -0.07573548 0.06834891 0.03873203 0.0028271675
0001e0 93 03 93 bd 6b 81 87 3d 40 12 3d 3c 9e d7 00 3d
       -0.07178416 0.066164814 0.011539996 0.03145563
0001f0 8d 1f 62 bd cc 50 12 3d 70 59 b0 3c 2c ac c2 bc
       -0.05520587 0.035721585 0.021527022 -0.023763739
000200 10 70 af bb b0 fa 8b bc ce 2d b0 bd 27 f5 64 bd
       -0.005353935 -0.01708731 -0.086024866 -0.055897858
000210 98 c9 0f 3c 50 a3 7a bc 31 d5 91 3d af 34 1f bd
       0.008776091 -0.015297726 0.07120741 -0.038868602
000220 80 45 b0 bc 6a 5d 52 3d f6 90 52 3d e3 d0 43 bd
       -0.021517515 0.051358618 0.051407777 -0.04780663
000230 c0 5a 4d 3c 9d ad 8a 3d 97 0b 07 bd 00 26 61 3c
       0.0125338435 0.06771395 -0.032970037 0.01374197
000240 00 a0 de b8 8b ab b2 3d 00 8d e0 b9 0d 60 38 bd
       -0.00010615587 0.087241255 -0.00042829663 -0.045013476
000250 40 28 c2 ba 82 40 3a bd 06 ab 9e bd ca cd 9c bd
       -0.0014813021 -0.045471676 -0.07747464 -0.07656439
000260 e2 20 db bc 86 e3 3d bd a4 ac 90 3c ea 22 1d 3d
       -0.026749078 -0.04635956 0.017660446 0.038363375
000270 46 82 6c 3d 19 dd 12 bd 7a 67 5d 3d 18 c1 77 3c
       0.057741426 -0.035855386 0.05405376 0.015121721
000280 16 b3 40 3d 00 78 5e bc 32 89 8a bd 59 49 a8 bd
       0.04704579 -0.013578415 -0.06764449 -0.08217115
000290 10 57 9b bd 6a 91 73 3d 5a e5 47 3d a4 34 7d bd
       -0.07584965 0.05946485 0.04880271 -0.06181778
0002a0 3e 0e 3f 3d a1 cd 83 3d ef e5 8f 3d 92 23 7f 3d
       0.04664444 0.06435705 0.07026278 0.062289782
0002b0 30 f7 01 bc de 4d e0 bc 18 85 5e bc 72 35 29 3d
       -0.007932469 -0.02738088 -0.013581537 0.041310735
0002c0 20 73 ce bb 78 fa 76 bd 8a 96 1e 3d 0a 7e 71 3d
       -0.006300345 -0.06029746 0.038717784 0.05895809
0002d0 f1 73 b0 3d f2 d9 6d bd 0c 83 e8 3c 88 44 da 3c
       0.08615864 -0.058069177 0.0283828 0.026644006
0002e0 96 46 77 3d f3 7b a2 3d f9 66 35 bd 62 99 3c 3d
       0.06037005 0.07933798 -0.044287656 0.046044715
0002f0 20 00 f2 3c ed 25 a7 3d 19 b4 b0 3d a2 04 55 3d
       0.029541075 0.08161531 0.08628101 0.05200637
000300 40 87 df 3c 1f 99 22 bd d2 1a 1d bd 00 ee 0c bb
       0.027286172 -0.03969681 -0.038355656 -0.0021504164
000310 e3 cc 63 bd 61 43 82 3d 62 e2 31 bd 1c 08 7a bd
       -0.055615317 0.06360508 -0.043428786 -0.06104289
000320 af fb a4 3d f9 72 39 bd e0 cc 3c bb 56 01 1c 3d
       0.08055817 -0.045275662 -0.0028808638 0.03808721
000330 00 4a 23 39 ae 94 fa bc 86 01 75 3d 20 23 f0 3b
       0.00015572459 -0.030588474 0.059815906 0.007328406
000340 e0 a2 5e bc 5d 12 94 3d 2f 44 90 3d f2 9d 5d 3d
       -0.013588637 0.07230065 0.07044255 0.054105707
000350 cf 15 2f bd 87 45 90 3d 18 94 fc bc db 03 ad 3d
       -0.042745408 0.07044511 -0.030832335 0.08448001
000360 b0 53 b2 3b f2 bd 3d 3d 1b b8 8f 3d 8c 30 02 3d
       0.0054421052 0.046323724 0.07017537 0.03178458
000370 08 83 38 bc e0 88 93 3b e0 17 79 3c 19 92 8a 3d
       -0.011261709 0.0045024008 0.015203446 0.06766147
000380 00 d7 ab 39 92 04 62 bd 75 cb aa bd eb b3 b0 bd
       0.0003277585 -0.05518014 -0.083395876 -0.08628067
000390 4d 4b b3 bd c0 7f f2 3c 5d 31 8d 3d 34 2a 2f bd
       -0.08754597 0.029601932 0.06894181 -0.042764857
0003a0 b5 f0 a9 3d be 9e 2c 3d d3 21 88 bd 80 c4 43 bb
       0.08297864 0.042143576 -0.066470765 -0.0029871762
0003b0 00 84 1a b9 c0 be 77 3c 09 af b3 3d 82 33 33 3d
       -0.00014735758 0.015121162 0.0877362 0.043750294
0003c0 ce c7 da bc a8 61 2d 3c 94 8d a5 3c f8 1b fa bc
       -0.026706602 0.010582365 0.020209111 -0.030530915
0003d0 ec 65 8f bd bc 17 9d bd 0c 34 b0 bd 7c 9b a8 3c
       -0.07001862 -0.076705426 -0.08603677 0.020581953
0003e0 8e 6f 47 3d 1a eb 5d bd ef b5 85 3d 70 52 bc bb
       0.04869037 -0.05417929 0.06528842 -0.005747132
0003f0 23 0c 25 bd 18 b7 05 bc 90 00 8e bc fe 02 73 3d
       -0.040294778 -0.008161329 -0.017334253 0.059329025

bias f4 [64]
000000 be 8c 9c bd c5 35 8e 3d 70 aa a7 bd bd 09 45 bd
       -0.07644032 0.069438495 -0.08186805 -0.04810499
000010 db 8f 83 bd c7 ec 8c 3d d8 44 ae 3c 52 87 a2 bd
       -0.06423923 0.06881099 0.021273062 -0.079359666
000020 d0 d0 6b bc d8 cc 22 3c 66 df 31 bd 70 e2 42 bd
       -0.0143930465 0.009936534 -0.04342594 -0.04757923
000030 a0 6e 10 bb 03 c6 1c bd 34 12 b9 bc 62 94 d7 bc
       -0.0022038594 -0.038274776 -0.022591688 -0.026315872
000040 c8 38 90 bd c0 c3 35 bc 5c 36 a4 bd 83 29 a1 3d
       -0.0704208 -0.011094034 -0.08018181 0.07869246
000050 c0 ae 3c bd e0 b0 19 3b ee 37 4c bd d7 c3 06 bd
       -0.046065092 0.0023451373 -0.049858026 -0.03290161
000060 a4 ae 1c bd 84 81 93 bc 88 27 c9 bc 86 12 5d 3d
       -0.038252488 -0.018006094 -0.024554983 0.053972743
000070 f9 2e 75 bd 17 66 aa 3d 6b cc 99 bd fe 00 64 3d
       -0.05985925 0.08320253 -0.07509693 0.05566501
000080 ec 84 b0 3c 40 6e 37 bc f8 8f 29 3c 70 08 c0 bb
       0.021547757 -0.011195719 0.010349266 -0.005860381
000090 fc b3 d2 bc 08 16 d7 3c e4 b5 85 3c c4 de d5 bc
       -0.025720589 0.026255623 0.016322084 -0.0261072
0000a0 54 55 cc 3c 36 e4 45 3d 25 ec a3 3d 18 1c 6c bc
       0.024943031 0.048313342 0.08004025 -0.014410995
0000b0 f8 f8 16 bc 90 ce a9 bc b9 d5 b3 3d f8 45 4c bd
       -0.009214632 -0.02072838 0.08780999 -0.049871415
0000c0 00 ec 33 3b 2f e7 45 bd a9 f2 a5 3d f8 e6 a4 bd
       0.00274539 -0.048316177 0.081029244 -0.08051866
0000d0 d5 98 66 bd a8 e2 1d 3c 10 4d d2 bb 3f d1 88 3d
       -0.056298096 0.009636559 -0.006417878 0.066805355
0000e0 5b 87 8a 3d b3 3b 99 bd fc 3f 6b bd 8f a2 56 bd
       0.06764098 -0.0748209 -0.057434067 -0.05240112
0000f0 92 4b 5d 3d e0 50 7f 3b 57 8b 9c 3d 72 e0 7c 3d
       0.054027148 0.0038958117 0.076437645 0.061737485

weight f4 [2, 128]
000000 6c a8 aa 3d 40 8d ec 3b 03 c8 5c bd 29 f0 2f bd
       0.08332905 0.0072189867 -0.053901684 -0.042953644
000010 a3 b1 09 3e b1 53 22 bd 54 00 86 3c 05 c4 5b 3d
       0.1344667 -0.039630596 0.016357578 0.053653736
000020 c0 fb 58 3d 2d 41 9f bd 97 5e d6 3a a7 18 38 3d
       0.052974463 -0.07776103 0.0016355094 0.044945385
000030 a0 82 8c 3d ce 34 3e 3d fe 23 4e bb e6 61 d6 bc
       0.06860852 0.046437077 -0.0031454558 -0.026169728
000040 27 29 2e bd 4d f3 1a bc 5b 21 81 bd 96 ac bc bc
       -0.042519715 -0.0094574215 -0.0630519 -0.023031514
000050 58 c1 af bc 28 ba a1 bc 08 aa 3a bd d3 f0 49 bd
       -0.021454498 -0.019742087 -0.04557231 -0.049301933
000060 7c f0 ba bc 6a 34 20 3e e2 c7 bc bb 68 1f 67 3d
       -0.02281975 0.15644994 -0.0057611326 0.056426436
000070 39 d8 03 bd 3c e3 86 bd 96 5f 00 3d f9 73 6e 3d
       -0.032188628 -0.0658631 0.031341158 0.05821607
000080 f8 62 1e 3e 73 a0 d9 bb a9 3b 29 bd fe b4 e6 bc
       0.15467441 -0.0066414415 -0.041316662 -0.028162476
000090 ea 3e 09 3e 61 d0 dc 3c 02 1b fd 3b 44 4e a9 3c
       0.13402906 0.026954832 0.007724167 0.020667203
0000a0 c0 9f ac bc ad 80 07 3c 33 72 61 3b 37 e8 91 3e
       -0.021072268 0.008270425 0.0034400343 0.28497478
0000b0 21 08 e1 bc 61 e3 5e 3e 71 a3 b6 bc b1 83 78 3e
       -0.027469696 0.21766426 -0.022294732 0.24268986
0000c0 40 30 0b 3d 88 83 e3 3c 64 8e 9d bd 22 31 03 bd
       0.03398156 0.02777268 -0.076931745 -0.03202928
0000d0 46 0d 0e 3d 76 92 dd bc 14 cd 76 bd e0 45 ac 3d
       0.034680627 -0.027047377 -0.06025417 0.08411765
0000e0 b9 36 17 3d 52 8b 4c bd b7 c5 ad 3d 9a 46 99 3c
       0.036917422 -0.049937554 0.08484977 0.018710423
0000f0 a7 75 5c bd b6 d0 11 3b 84 be 34 bd 42 fe c8 3d
       -0.05382314 0.0022249646 -0.044127002 0.09814121
000100 f4 38 1a 3e 61 e6 14 3d 96 8c 5b 3d eb e6 b5 bd
       0.15060788 0.03635252 0.05360087 -0.08881935
000110 df 8e c4 be 82 ab fd bc 70 0d f4 bc cb 33 8c bd
       -0.38390252 -0.03096557 -0.029791564 -0.06845816
000120 c4 bf 59 bc 07 bb ce 3c 4e 33 5f bd 8c af 46 3d
       -0.013290349 0.025235666 -0.054492287 0.04850726
000130 57 2d f5 3e 38 ce 9b bd 34 a3 2a bd 36 b1 4d bd
       0.47886154 -0.076076925 -0.04165955 -0.05021783
000140 07 a7 6c bd e9 76 cf 3c 24 c9 82 3d 29 f4 82 3c
       -0.057776477 0.025325255 0.06386021 0.015985565
000150 d2 47 66 3b 19 8c 06 bd 0f fd b5 3c 5d 18 91 3d
       0.0035138023 -0.03284845 0.022215394 0.07084725
000160 1a 90 c4 3d d9 66 a0 3c 43 7d 73 3d 0d 28 b9 bc
       0.09597798 0.019580292 0.05944563 -0.022602106
000170 30 4a b5 3c d5 7f c0 3a 3c 68 de bc 29 23 37 bd
       0.022130102 0.0014686534 -0.027149312 -0.044711266
000180 95 7a 2f bc c3 46 09 3d 12 84 5e 3d 8a ee 7f ba
       -0.010710378 0.03351475 0.05432517 -0.0009763023
000190 6e 92 9f 39 bc 46 b1 3d 28 41 4e bd 25 75 b8 bc
       0.00030435942 0.0865607 -0.050355107 -0.022516796
0001a0 c1 d4 3a 3c f2 3f 96 3a 64 88 86 bd 6b 9a 8b 3d
       0.011403264 0.0011463149 -0.06568983 0.06816562
0001b0 0c ae ee 3c a7 46 41 3c b6 8b 17 3d 18 d0 b4 3d
       0.029135726 0.01179663 0.036998473 0.08828753
0001c0 2c 49 66 3d 73 da 22 bd 5d af df 3c f1 72 a3 3c
       0.056222126 -0.03975911 0.0273053 0.01995227
0001d0 22 85 a4 bc 63 31 a4 3b 68 fb 46 3d 56 52 fa bc
       -0.020083014 0.00501077 0.048579603 -0.030556839
0001e0 13 7b 5b 3d ab 98 26 bc 1d 63 c2 bb 1e 8c 9c 3d
       0.05358417 -0.010168235 -0.0059322254 0.07643913
0001f0 27 67 cf 3d 08 9f 91 bd 24 93 5d 3c ec 4e 06 3d
       0.101270966 -0.07110411 0.013523851 0.03279011
000200 3e 24 59 bd 47 f8 5b ba df e2 85 bd 37 35 17 3d
       -0.05301308 -0.0008391183 -0.06537413 0.036915984
000210 bd 26 3d be 67 cc 88 bd 37 59 0b bc 62 11 81 bd
       -0.18471809 -0.06679612 -0.008505157 -0.06302144
000220 80 7d 86 bc c2 90 10 3d a7 48 35 3d ea ed 9c 3d
       -0.016417265 0.0352943 0.04425874 0.07662566
000230 53 6c 64 3d fd c8 e7 3c b8 6f 5c 3d 28 d7 46 bd
       0.05576737 0.02829408 0.05381748 -0.048545033
000240 e3 58 85 bc 98 cb 01 3d 84 e1 c1 bd 25 50 58 3c
       -0.016277736 0.031688303 -0.09466842 0.013202702
000250 61 5b e8 bc 01 ca 1b bc e5 a0 41 bd 7e a5 97 3d
       -0.028363885 -0.009508611 -0.04727258 0.07404612
000260 6f 5f 0a 3d 3d c3 a0 bd d8 71 31 3d cc 0b 9a 3d
       0.03378242 -0.07849739 0.04332146 0.07521781
000270 6a c4 5b bd fc 29 58 bd 75 84 96 3d 4a 63 6f 3d
       -0.053654112 -0.052774414 0.07349483 0.0584443
000280 f5 57 39 be 36 e9 10 bc 18 4d 8f 3d 6f 75 87 bb
       -0.18099959 -0.008844664 0.06997126 -0.004133872
000290 30 c7 11 be 01 d7 3f 3d 75 53 b3 39 a7 db 46 3d
       -0.1423614 0.046835903 0.0003420372 0.04854932
0002a0 37 b2 d7 bc 29 da 52 3c d7 39 be 3c 33 56 8f be
       -0.026330097 0.012869396 0.02322094 -0.27995452
0002b0 44 38 85 3a 29 f2 bf bd eb 0e c8 bc f0 7f 57 be
       0.0010163863 -0.0937236 -0.024421176 -0.21044898
0002c0 6e f0 8f 3c a1 97 8e 3c 29 3d da 3c 70 88 2c bd
       0.0175707 0.017406287 0.026640492 -0.042122304
0002d0 42 da 1c 3d a1 9e 13 bd e6 1f 72 bd a8 83 92 3d
       0.038294084 -0.036039952 -0.059112452 0.07154018
0002e0 6c bc 18 be 76 5b 1e 3c 90 1e f4 bd 86 3d bf 3c
       -0.14915627 0.009665361 -0.11919892 0.023344766
0002f0 66 63 d8 bd e4 aa 4b 3d 3e 46 e6 bb 0b cc 16 3d
       -0.10565834 0.04972352 -0.0070274165 0.036815684
000300 4d 5e e5 bd c1 13 b3 bd 52 f5 27 3d e3 57 a1 bd
       -0.11199627 -0.08744002 0.04100544 -0.07878091
000310 d7 89 5e 3e a8 e6 ec bd 53 f9 89 3c 75 52 05 3d
       0.21732269 -0.11567432 0.01684252 0.03254934
000320 bc 7c d7 39 8a b1 9f bc b2 0b 97 bd 02 ef 0c 3d
       0.0004110093 -0.019493837 -0.073752776 0.034407623
000330 df 6a f2 be 24 55 a0 bd 93 78 82 bc 7a 54 46 bd
       -0.4734716 -0.07828739 -0.015926635 -0.048420407
000340 2c 85 5f bd d7 8d 49 3c ad 77 51 3d 37 98 94 3b
       -0.054570362 0.012301884 0.051139522 0.004534747
000350 e2 17 84 bc 1f 11 27 bd 7e d8 2d 3d b9 df 83 bd
       -0.01612467 -0.040787812 0.04244279 -0.06439156
000360 7a 1a 56 3d 0e f5 37 3c 59 61 26 3d 5f 39 9c bb
       0.052271344 0.011227859 0.04062018 -0.0047675814
000370 3d 5f dd 3b 9f fb ea 3a e6 50 0a bd c5 97 a7 bc
       0.006755738 0.0017927772 -0.033768557 -0.020458112
000380 83 62 9a bd 52 39 89 bd 52 92 c7 3b 0d e4 a7 3b
       -0.07538321 -0.06700386 0.006090441 0.0051236213
000390 b9 38 50 3b 88 8f c6 bd a4 2f 4d bd 65 31 91 3d
       0.003177209 -0.09695345 -0.05009426 0.070894994
0003a0 7a 37 01 3d 2b 7c 22 3c e4 c9 55 bc e5 c8 e4 bc
       0.031547047 0.009917299 -0.013048623 -0.027927825
0003b0 42 f9 80 bc 31 b4 66 3d d7 46 ee 3c df be 06 bd
       -0.015743855 0.056324188 0.029086513 -0.032896873
0003c0 42 18 43 3d b7 55 47 3d 05 48 28 3d 4d cb 29 3d
       0.047630556 0.04866573 0.04108431 0.04145365
0003d0 64 25 24 bd 0d 48 38 3d 81 f3 21 bc de 97 5c bd
       -0.04007472 0.044990588 -0.009884716 -0.05385577
0003e0 ed e7 6e 3d 07 a2 d6 bb fa c4 b7 bb 49 7f e5 3b
       0.05832665 -0.006550077 -0.0056081982 0.007003699
0003f0 03 88 e5 bc fa 1b bc 3d fc 1c 90 3c 0a 28 83 bd
       -0.028018957 0.091850236 0.017591946 -0.06404121

bias f4 [2]
000000 2e a5 28 3d 59 8b f6 bc
       0.041173153 -0.030095743
