python/finalModels/myCNN_with_Notes.pth (torch_old, 220585 bytes, 10 tensors)

weight f4 [6, 1, 5]
0	0x3e5bb1fd	0.21454616
1	0x3dc84dd7	0.09780472
2	0x3e335ce6	0.17515907
3	0x3e83b2c4	0.25722325
4	0xbe62da0c	-0.22153491
5	0x3eb69970	0.3566394
6	0x3eb28f8c	0.34875143
7	0xbf413e3a	-0.75485575
8	0xbf3ebc7a	-0.7450634
9	0xbd9c43c6	-0.07630114
10	0x3e6b96e8	0.23006785
11	0x3eafac50	0.34311152
12	0xbf39cf59	-0.7258201
13	0x3e39710a	0.18109527
14	0xbd729dfd	-0.0592327
15	0xbe422b0e	-0.18961737
16	0x3e127cc6	0.1430541
17	0xbebd49c0	-0.3697033
18	0xbd585df9	-0.052823994
19	0x3de99e2e	0.114071235
20	0x3e84a78a	0.25909072
21	0xbc368e76	-0.011142364
22	0xbb3c63be	-0.0028745974
23	0x3ed2c24b	0.4116386
24	0xbb8c67fc	-0.004284857
25	0xbbc56257	-0.006023686
26	0xbec5d068	-0.38635564
27	0x3ef89473	0.48550758
28	0x3ef02c17	0.46908638
29	0x3bb1a055	0.0054207244

bias f4 [6]
0	0xbf240d13	-0.6408245
1	0x3dad46c0	0.0846076
2	0x3e485d64	0.19566876
3	0xbf0fe18e	-0.56203544
4	0xbf3759cf	-0.7162141
5	0x3ab11ce0	0.0013512634

weight f4 [16, 6, 5]
0	0xbe128390	-0.14308
1	0x3d9bd782	0.07609464
2	0xbcc535aa	-0.02407344
3	0x3dda2de2	0.10653283
4	0x3d877c93	0.066155575
5	0xbe24eed4	-0.1610673
6	0xbd298055	-0.041382153
7	0x3e00613a	0.12537089
8	0x3dfad137	0.12246936
9	0xbdd5ead9	-0.10445184
10	0xbac0babb	-0.0014704088
11	0xbd7c2496	-0.06155833
12	0x3ce97d4f	0.028502135
13	0x3ded4c6a	0.115868405
14	0x3e107089	0.14105429
15	0xbcb20713	-0.021731889
16	0x3c8fa936	0.01753674
17	0xbe079428	-0.13240111
18	0xbd5d4daf	-0.054029163
19	0x3b6612f3	0.003510651
20	0x3da02c76	0.0782098
21	0xbe68b0bf	-0.22723673
22	0xbd20b6c7	-0.03923681
23	0xbe419e60	-0.18908072
24	0xbdc41eb8	-0.09576172
25	0x3da3c75d	0.0799701
26	0xbc825120	-0.015907824
27	0x3d8555e4	0.06510523
28	0xbe2bcc09	-0.16777052
29	0xbc448de7	-0.011996723
30	0x3da6c708	0.08143431
31	0x3d91ee0f	0.07125484
32	0xbe85e610	-0.26152086
33	0x3cedfe80	0.02905202
34	0xbe897499	-0.2684677
35	0xbf15328b	-0.5828025
36	0xbe245b1d	-0.16050382
37	0xbd511ef5	-0.051054914
38	0x3d41579f	0.047202703
39	0xbed385fe	-0.41313165
40	0xbdcb4f9b	-0.09927293
41	0xbd488bf0	-0.04896158
42	0x3e23de76	0.16002831
43	0x3d8bd0b8	0.06826919
44	0x3d6b7693	0.057486128
45	0x3d3ae243	0.045625936
46	0xba830526	-0.0009996041
47	0x3c85e9e4	0.01634688
48	0x3bbfdc0c	0.005855089
49	0xbe177fe4	-0.1479488
50	0x3dc78265	0.09741668
51	0xbce8114c	-0.02832856
52	0x3d8e1bf8	0.06938928
53	0xbe28a0e9	-0.16467632
54	0xbe2c5064	-0.16827542
55	0xbecad1dd	-0.39613238
56	0xbc261060	-0.01013574
57	0xbe4b5318	-0.19855917
58	0xbd57d217	-0.05269059
59	0xbedf9535	-0.43668523
60	0x3dcc3fd7	0.09973114
61	0xbda7d29a	-0.08194466
62	0xbe654e50	-0.22393155
63	0xbc980f62	-0.018562023
64	0xbe84129e	-0.25795454
65	0x3c579b59	0.013159596
66	0xbe2e7898	-0.1703819
67	0xbe90bcf7	-0.2826917
68	0xbe83e1f8	-0.25758338
69	0xbdec4ad2	-0.11537708
70	0xbb89cb33	-0.0042051314
71	0x3da3f351	0.08005393
72	0xbe4fbc88	-0.20286763
73	0xbdb2977e	-0.08720301
74	0xbe49d54c	-0.19710273
75	0xbdd06903	-0.101762794
76	0x3dc8834e	0.097906694
77	0xbe2b9f9a	-0.16760102
78	0xbdde15be	-0.10843991
79	0xbb549ab2	-0.0032440838
80	0xbe23c2cd	-0.1599228
81	0xbd2a84e2	-0.041630633
82	0xbd16b83e	-0.0367968
83	0xbe6bd350	-0.23029828
84	0xbe385a95	-0.18003304
85	0x3db84a26	0.08998518
86	0xbdb07670	-0.0861634
87	0x3d888cef	0.06667506
88	0x3db3d451	0.087807305
89	0xbe828486	-0.25491732
90	0xbdc69d5c	-0.09697983
91	0xbd946252	-0.072453156
92	0xbe1d016f	-0.15332578
93	0xbd289fbf	-0.04116797
94	0xbe4abdae	-0.1979892
95	0x3e639a8c	0.22226924
96	0xbbf1398d	-0.007361597
97	0x3ea7f977	0.32807514
98	0x3cd1ce4c	0.025611065
99	0x3b7791f6	0.0037776208
100	0xbe5177f8	-0.2045592
101	0xbe4dc2d0	-0.20093846
102	0xbe57fb0c	-0.2109186
103	0x3d453693	0.04814775
104	0x3dc03ef7	0.093870096
105	0xbe483407	-0.19551097
106	0x3aba1875	0.0014197963
107	0xbb0589f8	-0.0020376425
108	0xbe563974	-0.20920354
109	0xbdc83b5d	-0.09776948
110	0xbe956548	-0.29178834
111	0xbd44c728	-0.048041493
112	0xbe61a161	-0.22034217
113	0xbe69dba6	-0.22837695
114	0xbcea0560	-0.028567016
115	0xbf3941f3	-0.72366256
116	0x3a5af30c	0.0008352257
117	0xb8b05dc8	-8.409802e-05
118	0x3db9b4f7	0.090677194
119	0xbb66e055	-0.0035228927
120	0xbe857a7f	-0.2607002
121	0xbe32e551	-0.1747029
122	0xbd590d29	-0.052991066
123	0x3ceb047e	0.028688665
124	0x3dddfce3	0.1083925
125	0x3dcd9916	0.100389645
126	0x3e615e06	0.22008523
127	0x3e881272	0.26576573
128	0xbf04de7f	-0.51902
129	0x3e8f5a19	0.27998427
130	0x3d84f430	0.064918876
131	0x3dfc0192	0.12304987
132	0xbd79fd38	-0.061032504
133	0xbefadeca	-0.489981
134	0xbd7d2dc9	-0.061811242
135	0xbdcde37d	-0.100531556
136	0x3ce5906d	0.02802297
137	0xbd970fc6	-0.073760554
138	0xbeb0cb4a	-0.34530097
139	0x3ba9799c	0.0051719677
140	0xbd71c9d0	-0.059030354
141	0xbe91185c	-0.28338897
142	0xbe8b109f	-0.27161118
143	0xbdbd4f9a	-0.092436984
144	0xbd46166a	-0.04836122
145	0x3db08adc	0.08620235
146	0x3ccff90e	0.025387313
147	0xbeabd512	-0.33560997
148	0xbdea7e4a	-0.11449869
149	0x3da5af65	0.080900945
150	0xbe1ee897	-0.15518413
151	0xbd53d158	-0.051713318
152	0xbddd4663	-0.10804441
153	0x3c70b83c	0.014692362
154	0xbe8f6f2b	-0.28014502
155	0x3c207435	0.009793331
156	0x3ecaa0bf	0.39575765
157	0x3dea27ff	0.1143341
158	0xbe1583c5	-0.14601047
159	0xbe47e48f	-0.19520782
160	0x3dbd67e3	0.092483304
161	0xbe6154e8	-0.22005045
162	0x3d86042a	0.06543763
163	0x3d8d7bfa	0.06908412
164	0xbe298686	-0.16555223
165	0xbe31ec67	-0.17375337
166	0x3ded1374	0.11575976
167	0xbd29fff4	-0.04150386
168	0xbe15133c	-0.14558119
169	0xbeafc4cc	-0.34329832
170	0xbea1a4b0	-0.3157096
171	0xbe693909	-0.22775663
172	0xbe43464d	-0.19069786
173	0xbe07f317	-0.13276325
174	0xbec9c8bd	-0.39410964
175	0xbe19935f	-0.14997624
176	0x3ce11253	0.027474558
177	0x3cbd021f	0.0230723
178	0xbd0108f1	-0.031502668
179	0x3edef9aa	0.43549854
180	0x3e48b461	0.19600059
181	0xbe753c04	-0.23948675
182	0x3d236104	0.039887443
183	0xbe04bc71	-0.1296251
184	0xbdba461c	-0.090954036
185	0xbe013f9c	-0.12621921
186	0xbe65181c	-0.22372478
187	0x3dd25c73	0.102715395
188	0xbc0c90a6	-0.008579409
189	0xbcefe541	-0.029284121
190	0x3db55921	0.088548906
191	0xbe066e6c	-0.1312806
192	0x3dfa881a	0.122329906
193	0xbe64a2f4	-0.22327787
194	0xbe496fa2	-0.19671491
195	0xbe55ee78	-0.2089175
196	0x3d004a62	0.031320937
197	0xbd508cd4	-0.050915554
198	0xbd66180f	-0.056175288
199	0xbd793432	-0.060840793
200	0xbe1c92f5	-0.15290435
201	0x3c96d873	0.018413758
202	0xbc5ea726	-0.013589656
203	0x3b9b49c8	0.00473902
204	0x37984c91	1.8155466e-05
205	0x3d923b3d	0.07140205
206	0x3d65cfd5	0.056106407
207	0xbc2e792d	-0.010649008
208	0xbe8cdf80	-0.27514267
209	0x3d0f883f	0.035042044
210	0xbde0823a	-0.10962339
211	0x3dad09a3	0.08449104
212	0x3d9ffa1d	0.07811377
213	0x3bfaaa97	0.0076497304
214	0x3dcdf340	0.10056162
215	0x3d9a0b7f	0.07521724
216	0xbbd63946	-0.0065375892
217	0x3d7f9eb1	0.0624072
218	0xbd1e90a1	-0.038712148
219	0xbd0d6146	-0.034516595
220	0x3cc1fff7	0.023681624
221	0xbc92efc7	-0.0179366
222	0xbdefb790	-0.11704934
223	0x3da22014	0.07916275
224	0xbdfdb263	-0.1238754
225	0x3d534a6b	0.051584642
226	0xbc319b5d	-0.010840264
227	0xba7acb86	-0.00095670705
228	0x3d4576fc	0.048209175
229	0xbe241ecb	-0.16027372
230	0xbdf81da4	-0.121150285
231	0x3d13c04d	0.036072064
232	0x3d344136	0.044007502
233	0xbe0e0aac	-0.13871258
234	0x3d01fef5	0.031737287
235	0x3daf09c7	0.08546787
236	0xbde46355	-0.111517586
237	0xbd35c914	-0.044381216
238	0xbda25b47	-0.07927566
239	0xbd8b71bd	-0.06808803
240	0xbe0a88d2	-0.13528755
241	0xbdb9e0bd	-0.090760686
242	0xbd18baf4	-0.037287667
243	0xbe2b77f2	-0.16744974
244	0xbe51043b	-0.2041177
245	0x3d7002ee	0.058596544
246	0x3e0d9a23	0.1382833
247	0xbf6215d4	-0.8831456
248	0xbecb8558	-0.3975017
249	0xbc66bc73	-0.014083016
250	0xbd85fa22	-0.0654185
251	0x3dded8f3	0.108812235
252	0x3c5f85d8	0.013642751
253	0x3e2eecca	0.17082515
254	0x3df24a67	0.11830597
255	0x3e27d768	0.16390765

bias f4 [16]
0	0xbe1c0e6d	-0.15239878
1	0x3e980860	0.2969389
2	0xbdd369e3	-0.10322931
3	0x3dd85a55	0.105641045
4	0x3db2432b	0.087042175
5	0x3cb92438	0.022600278
6	0x3de094ec	0.109659046
7	0xbecc85f9	-0.39945963
8	0x3e40d5ef	0.18831609
9	0xbd6f2dad	-0.05839317
10	0x3e4f53ff	0.20246886
11	0x3bcc9c79	0.006244239
12	0x3d8bb5c0	0.068217754
13	0x3d89ae3f	0.06722688
14	0xbe892139	-0.2678316
15	0x3e0b1f65	0.13586195

weight f4 [128, 336]
0	0x3d3e22b6	0.04641982
1	0xbd0d6bfe	-0.034526818
2	0x3e1d1652	0.15340546
3	0x3e4d3324	0.2003904
4	0x3d9cd7cf	0.0765835
5	0xbcb676eb	-0.022273501
6	0x3d37123f	0.044695135
7	0x3dc4e01b	0.09613057
8	0x3e87f1c7	0.2655165
9	0x3db6fb19	0.08934612
10	0x3b1c3b86	0.002383919
11	0xbcf447e3	-0.029819435
12	0x3e84cca1	0.2593737
13	0xbe49b6bf	-0.19698618
14	0x3c1d1e2c	0.009589713
15	0xb872ba04	-5.7870537e-05
16	0xbcfc350c	-0.030787013
17	0xbd0c1334	-0.034198
18	0xbd1b4b80	-0.0379138
19	0x3e6c2736	0.23061833
20	0x3a5075a7	0.0007952102
21	0x3d260ff0	0.040542543
22	0xbd69bc5d	-0.057064403
23	0xbd1ce2d4	-0.038302258
24	0x3ce48d8e	0.02789953
25	0x3db48052	0.08813538
26	0xbd8c5a2f	-0.06853139
27	0xbd0536a3	-0.03252281
28	0xbda8dec8	-0.08245617
29	0xbd31523f	-0.043291327
30	0xbb530a6d	-0.003220226
31	0x3cc23126	0.023705076
32	0xbd341fd7	-0.043975677
33	0x3e0592d4	0.13044292
34	0xbdb8baab	-0.09019979
35	0xbd837e07	-0.06420522
36	0xbd86dee5	-0.065854825
37	0xbd8cb06d	-0.06869588
38	0x3d0887e6	0.033332728
39	0x3d2d3dc5	0.042295236
40	0x3edf0502	0.43558508
41	0x3e5b6df2	0.2142866
42	0xbce404da	-0.027834345
43	0x3d0f6c7a	0.03501556
44	0xbcdb7e40	-0.0267936
45	0x3d93877f	0.07203578
46	0x3e95d016	0.2926032
47	0xbbe654f6	-0.007029171
48	0x3d1ac900	0.037789345
49	0x3e09a8f6	0.1344336
50	0x3ec3b9da	0.3822773
51	0xbc112fb1	-0.008861468
52	0x3d94ea8d	0.072712995
53	0x3d657200	0.056016922
54	0x3d19e360	0.037570357
55	0x3d50276d	0.05081885
56	0xbdc83153	-0.09775033
57	0x3ca3ca09	0.019993799
58	0xbc36b79b	-0.011152173
59	0xbbeef9e1	-0.0072929715
60	0xbdde17e2	-0.10844399
61	0xbd4e2d8e	-0.050336413
62	0xbced82cd	-0.028993035
63	0x3deaa3a9	0.11456997
64	0x3e1b8a01	0.15189363
65	0x3e0eeb3b	0.13956921
66	0x3de29ad1	0.11064685
67	0x3e346686	0.17617235
68	0x3dae9d3c	0.08526084
69	0x3e0879fa	0.1332778
70	0xbb7eb7dc	-0.0038866913
71	0x3cde0df9	0.027106272
72	0xbd7d419b	-0.061830144
73	0x3d8220f0	0.063539386
74	0x3d6f8b40	0.05848241
75	0x3ec02934	0.37531435
76	0x3dbc97a8	0.09208614
77	0x3cc90b1a	0.024541426
78	0x3dd3073f	0.103041165
79	0x3db47b36	0.08812563
80	0x3dfb9caa	0.12285741
81	0x3d662d15	0.056195337
82	0x3e30f5d0	0.1728127
83	0xbeb130b9	-0.34607485
84	0x3dd0c99e	0.101947054
85	0x3ce356e0	0.027751386
86	0x3c80ba92	0.015713964
87	0x3e9a9298	0.30189967
88	0x3db69a7f	0.089161865
89	0x3c70ecfd	0.01470494
90	0xbbf3b13f	-0.007436901
91	0x3d7b778c	0.061393306
92	0x3d836461	0.0641563
93	0x3cd9be8d	0.02658012
94	0x3d0d4c4b	0.034496587
95	0xbcc95809	-0.024578111
96	0x3c1d0563	0.009583804
97	0x3e511c68	0.20420992
98	0xbcb90d94	-0.022589482
99	0xbcd0e458	-0.025499508
100	0x3cfc2337	0.03077851
101	0xbc276a27	-0.01021818
102	0xbd6827dc	-0.056678638
103	0xbef0a4ff	-0.47000882
104	0x3db27df4	0.0871543
105	0x3dd201ef	0.10254275
106	0x3db39c56	0.08770053
107	0x3e14c6f1	0.14529015
108	0x3d8bfb01	0.068349846
109	0x3db0937f	0.08621883
110	0x3d0d19c3	0.034448396
111	0x3c2d8481	0.010590673
112	0x3c2d4725	0.010576044
113	0x3da6c6ed	0.08143411
114	0x3cf4b74c	0.029872559
115	0x3def1e53	0.11675706
116	0x3debb1ab	0.11508497
117	0xbcb6a107	-0.02229358
118	0x3c4b3629	0.0124030495
119	0x3d255d11	0.04037196
120	0x3d3e9b1c	0.046534643
121	0x3d46836b	0.048465174
122	0xbe12a620	-0.14321184
123	0x3e0a2540	0.13490772
124	0xbdcc1ea0	-0.09966779
125	0xbf529719	-0.82261807
126	0x3a6a6419	0.00089413073
127	0x3c8b5134	0.017006494
128	0x3d4e4cb1	0.050366107
129	0xbd926158	-0.07147473
130	0x3bd9a596	0.006642054
131	0xbc981f13	-0.018569505
132	0x3d3c01b8	0.045900077
133	0xbd0f7713	-0.035025667
134	0xbc2238af	-0.00990121
135	0xbd87d9e0	-0.06633353
136	0xbdb9fc6b	-0.09081348
137	0x3d6895d0	0.056783497
138	0x3e7e397e	0.24826619
139	0xbdf16b0d	-0.117879964
140	0x3c8d3d35	0.0172411
141	0xbca2ca37	-0.019871814
142	0x3b900078	0.004394587
143	0x3c662133	0.014046001
144	0xbd775975	-0.060388047
145	0x3ea72b7b	0.3265036
146	0x3e2d924b	0.16950338
147	0x3c8461a6	0.016159844
148	0x3d5d673d	0.054053534
149	0x3bfa52fa	0.007639286
150	0x3e523740	0.20528889
151	0x3d88e9f0	0.06685245
152	0x3d2eeffe	0.042709343
153	0x3d299cca	0.04140929
154	0x3cdb1e37	0.026747806
155	0x3d8ade66	0.067807004
156	0x3ddd0595	0.1079208
157	0x3dce9bd2	0.10088314
158	0x3e063592	0.13106373
159	0xbd709d31	-0.05874366
160	0x3c554d3c	0.013018902
161	0xbdeffb31	-0.11717833
162	0xbd4eefcb	-0.050521653
163	0xbd9c18da	-0.076219276
164	0x3c2c0af7	0.010500661
165	0xbdf3b660	-0.1190002
166	0x3caa42c2	0.020783786
167	0xbb08d420	-0.002087839
168	0x3daf8242	0.085697666
169	0x3dad9ebd	0.084775425
170	0x3d8efd21	0.06981874
171	0xbc80caf4	-0.015721776
172	0x3e17f8dd	0.14841028
173	0x3dc48228	0.09595138
174	0x3da9f12a	0.082979515
175	0x3c0550aa	0.008136908
176	0x3dc27e87	0.094967894
177	0x3daf3463	0.08554914
178	0x3d756ea0	0.059919953
179	0x3d376d88	0.04478219
180	0x3ea788af	0.3272147
181	0x3c933829	0.017971115
182	0x3e24de1e	0.16100356
183	0x3dcb8dc3	0.09939148
184	0x3e1bd9f8	0.15219867
185	0x3e3d5759	0.18490352
186	0x3e0e4dd5	0.13896878
187	0x3ba5bce2	0.005057917
188	0x3f255eec	0.64597964
189	0x3d8185ee	0.06324373
190	0x3ded466b	0.11585697
191	0x3ddc3ca4	0.10753754
192	0xbc5ba29b	-0.013405467
193	0xbca21eb5	-0.019790033
194	0x3dfc320d	0.12314234
195	0x3dc46373	0.09589281
196	0x3d6bf577	0.05760714
197	0xbd30fce9	-0.043209944
198	0x3cde3b71	0.027127953
199	0x3d429560	0.047505736
200	0x3d53e040	0.051727533
201	0xbdc2f42e	-0.0951923
202	0x3c92fd0c	0.017942928
203	0x3d881ef2	0.06646527
204	0x3d63ca32	0.05561275
205	0x3ca7290f	0.02040532
206	0xbd43094d	-0.04761629
207	0x3cfdba86	0.03097273
208	0xbeecd6a1	-0.462575
209	0x3e94bf5c	0.29052246
210	0x3d552a8f	0.05204254
211	0x3d7931e4	0.060838595
212	0x3d377f47	0.044799116
213	0x3d9e7e85	0.077389754
214	0xbc7f6775	-0.015588631
215	0xbcd90fc3	-0.026496774
216	0x3e017b0d	0.12644596
217	0x3d3004de	0.04297339
218	0xbb1356e6	-0.0022482215
219	0x3d763c9b	0.06011639
220	0x3d8ac1e1	0.06775261
221	0xbe6e683c	-0.2328195
222	0xbdfc5009	-0.12319953
223	0x3c3a69ad	0.011377734
224	0x3d33dd4c	0.043912217
225	0xbc697b37	-0.014250568
226	0x3daaf33a	0.08347173
227	0x3e5d1579	0.21590222
228	0xbd9bf1a4	-0.07614449
229	0x3e709bf7	0.23496996
230	0x3ee98e8e	0.45616573
231	0xbca5854e	-0.020205166
232	0x3b016840	0.0019745976
233	0x3df4886b	0.11940082
234	0x3d01854f	0.031621274
235	0x3bd810ea	0.006593813
236	0x3cb9ed3a	0.022696126
237	0x3d8b7fe8	0.068115056
238	0x3d1e1ae7	0.038599875
239	0x3d41297c	0.047158703
240	0x3d90b552	0.07065834
241	0x3d91c02a	0.071167305
242	0x3cf993d4	0.030465998
243	0x3bfa2638	0.0076339506
244	0x3c9930b4	0.018699981
245	0xbd67bd86	-0.056577228
246	0x3d8bbedf	0.06823515
247	0xbbab0b93	-0.0052198856
248	0xbd8c9530	-0.06864393
249	0xbc14357f	-0.009045958
250	0xbf14a103	-0.58058184
251	0x3e71c14e	0.23608896
252	0x3d9e2e32	0.07723655
253	0xbced553a	-0.028971303
254	0xbd91d855	-0.0712134
255	0x3e7cc672	0.24685076

bias f4 [128]
0	0x3e1e1902	0.15439227
1	0x3de9ca7d	0.11415575
2	0xbc400cdd	-0.011721817
3	0xbd4936ee	-0.04912465
4	0x3c0cc294	0.008591313
5	0xbd1b9bb6	-0.037990294
6	0x3e22185d	0.15829606
7	0xbd241e11	-0.040067736
8	0x3dd9c547	0.10633331
9	0xbc8943a4	-0.016755886
10	0x3dd82c8e	0.10555373
11	0xbe6ccb1b	-0.23124354
12	0x3e2a85c0	0.16652584
13	0x3e0e8c75	0.13920768
14	0x3d4cf379	0.05003688
15	0xbe32be07	-0.17455302
16	0x3e14d2de	0.14533564
17	0xbe2cd06d	-0.16876383
18	0x3db81877	0.08989041
19	0xbd800e4b	-0.06252726
20	0xbcdf2b1c	-0.027242236
21	0x3d71a813	0.05899818
22	0xbd8afd8b	-0.06786641
23	0x3de9023b	0.113773786
24	0x3c4f40ef	0.012649759
25	0x3ddf24c9	0.10895688
26	0x3d611d94	0.05495985
27	0x3bea6928	0.007153649
28	0xbd62dd60	-0.0553869
29	0xbae73a2b	-0.0017641237
30	0x3cc18bd9	0.023626255
31	0xbdb1f571	-0.08689392
32	0xbdbf9b0f	-0.09355747
33	0xbdc1fb7f	-0.09471797
34	0xbccad8f5	-0.024761656
35	0x3cc9a3c2	0.024614219
36	0x3ba310b2	0.0049763555
37	0xbc5baf0c	-0.013408434
38	0xbdff9d7d	-0.124812104
39	0xbd1ca60a	-0.038244285
40	0x3dbdcde9	0.0926779
41	0xbe505e24	-0.20348412
42	0x3d309131	0.043107215
43	0x3d8c0b2a	0.06838067
44	0xbe72c345	-0.23707302
45	0xbd181150	-0.037125885
46	0xbbae94b9	-0.0053277877
47	0xbca2b123	-0.019859856
48	0xbd699889	-0.057030234
49	0xbd4c1067	-0.04982033
50	0x3df282c4	0.11841348
51	0x3c97238b	0.018449565
52	0xbd62292a	-0.05521504
53	0x3d6c94a8	0.057758957
54	0x3e23227b	0.15931122
55	0xbd383931	-0.044976417
56	0xbce139ab	-0.027493319
57	0x3e52a0f8	0.20569217
58	0x3d0b338e	0.033984713
59	0xbd9f6693	-0.07783236
60	0x3ddac816	0.106826946
61	0xbca5a91b	-0.020222237
62	0xbdeff1c9	-0.11716039
63	0x3e072eae	0.132014
64	0x3daf612a	0.085634544
65	0x3c071557	0.008244834
66	0x3d634551	0.055486027
67	0xbe86242b	-0.2619947
68	0x3dfd188c	0.123581976
69	0x3dd15cc5	0.102227725
70	0x3cd1316a	0.025536258
71	0xbabe74a0	-0.0014530607
72	0xbdae7204	-0.085178405
73	0xbd8e8078	-0.06958097
74	0x3cb070da	0.021538187
75	0xbd8fc8c5	-0.070207156
76	0xbcb59208	-0.02216436
77	0xbd1c75c9	-0.038198266
78	0xbd78c767	-0.06073704
79	0xbe400acc	-0.18754119
80	0x3dbe8858	0.09303349
81	0x3ce1683f	0.027515529
82	0xbc9d339f	-0.019189654
83	0xbda04623	-0.078258775
84	0xbca3bc74	-0.019987322
85	0x3d32476c	0.043525144
86	0xbc3e22cd	-0.011604977
87	0x3d066651	0.03281242
88	0xbd60efdf	-0.05491626
89	0xbd94d194	-0.07266536
90	0xbd58c65b	-0.05292354
91	0x3c565144	0.013080899
92	0x3e2d97eb	0.16952483
93	0xbdacc28f	-0.084355466
94	0xbcd6a38a	-0.026201028
95	0x3aadd1dc	0.0013261396
96	0xbdb67eb9	-0.08910889
97	0xbccc4589	-0.0249355
98	0x3e07083b	0.13186733
99	0xbc7942a5	-0.015213643
100	0xbc65c448	-0.014023848
101	0x3d84a3a8	0.064765275
102	0xbdedd57c	-0.116129845
103	0x3e25838a	0.1616346
104	0x3dc1dd06	0.09465985
105	0x3d057ece	0.032591633
106	0xbd01c270	-0.03167957
107	0xbd4d84b3	-0.05017538
108	0xbc203a9f	-0.009779601
109	0xbd29180e	-0.041282706
110	0xbb1bab36	-0.0023753173
111	0xbc4ba658	-0.012429796
112	0xbd2e8e99	-0.04261646
113	0x3e001f10	0.1251185
114	0x3d8187b6	0.06324713
115	0xbd5821e2	-0.05276669
116	0x3e202670	0.15639663
117	0x3d6f8b60	0.058482528
118	0x3d0fc571	0.035100404
119	0x3d94eedf	0.072721235
120	0x3decbc3e	0.11559342
121	0xbd6a913e	-0.05726742
122	0xbe1088f9	-0.14114751
123	0xb9bdb260	-0.0003618179
124	0xbd99334b	-0.074804865
125	0xbcb073a5	-0.021539519
126	0x3e0964ae	0.13417313
127	0x3e300580	0.17189598

weight f4 [64, 128]
0	0xbd296b11	-0.041361872
1	0xbb192a40	-0.002337113
2	0xbd0891e4	-0.033342257
3	0xbd883678	-0.06651014
4	0xbd34f773	-0.0441813
5	0x3ba2b540	0.0049654543
6	0xbda11406	-0.07865147
7	0x3ccbdebc	0.024886481
8	0x3d1f557e	0.03889989
9	0x3d57ccbe	0.05268549
10	0x3cf53848	0.029934064
11	0x3da96a99	0.08272285
12	0x3d72124e	0.059099488
13	0xbd9748b1	-0.07386912
14	0xbd58e76d	-0.05295508
15	0x3da14f7f	0.07876491
16	0x3d31bbfa	0.04339216
17	0x3da06bd5	0.07833067
18	0x3d962f6f	0.07333266
19	0xbd9707a2	-0.07374503
20	0x3cad969c	0.02118998
21	0xbd808368	-0.06275064
22	0xbd9559b9	-0.07292504
23	0x3d346b82	0.04404784
24	0xbdad56e3	-0.08463838
25	0xbd05c178	-0.03265521
26	0xbcd4feaa	-0.02600034
27	0x3b483ea0	0.0030554906
28	0x3d373242	0.044725664
29	0x3bc30180	0.0059511065
30	0xbd12fd10	-0.03588587
31	0xbcfd7d16	-0.030943435
32	0xbda4aa1c	-0.08040258
33	0x3d6b3c9e	0.057430856
34	0x3c583a08	0.0131974295
35	0xbbf83870	-0.0075750872
36	0x3d8d8d7b	0.06911751
37	0xbd90c5c9	-0.070689745
38	0xbdaa2104	-0.083070785
39	0xbc2bc9e0	-0.0104851425
40	0x3d8e711d	0.069551684
41	0x3d30d28a	0.043169536
42	0x3d7b8a76	0.061411344
43	0x3c2bdd08	0.01048971
44	0x3d461902	0.048363693
45	0xbd9d462a	-0.07679398
46	0x3da97f81	0.082762726
47	0x3d8f4a0d	0.06996546
48	0xbd8fbb56	-0.07018153
49	0x3d6b2b56	0.057414375
50	0x3d057d9c	0.032590494
51	0xbdae2a26	-0.08504133
52	0x3d26dafa	0.040736176
53	0x3d0b2d20	0.03397858
54	0xbdb18e59	-0.08669729
55	0x3d89e475	0.06733028
56	0x3c95487c	0.01822304
57	0x3d495836	0.04915639
58	0xbd87a2af	-0.06622826
59	0xbd54fa05	-0.05199625
60	0x3cf68b68	0.030095771
61	0xbd78a785	-0.060706634
62	0x3cfe8274	0.031068064
63	0xbd858444	-0.06519368
64	0xbbc050b0	-0.0058689937
65	0xbcb0e5cc	-0.02159395
66	0xbdb411ac	-0.08792433
67	0x3da6ddb3	0.081477545
68	0xbd9dae03	-0.07699206
69	0x3d018954	0.031625107
70	0xbd939cb8	-0.07207626
71	0xbdb2e024	-0.08734158
72	0xbc2157b0	-0.0098475665
73	0x3caaf78c	0.020869993
74	0xbb4b11a0	-0.0030985847
75	0x3da2e641	0.07954074
76	0x3ca0f4f4	0.019648053
77	0x3c808f78	0.015693411
78	0xbcd4e7b4	-0.02598939
79	0xbd262f39	-0.04057238
80	0xbcf3dfda	-0.029769827
81	0xbc9e4060	-0.019317806
82	0xbd940ad3	-0.07228627
83	0x3ca0935c	0.019601516
84	0x3c7c16f0	0.015386328
85	0x3da4238f	0.08014595
86	0x3cea9990	0.028637677
87	0xbc10d568	-0.0088399425
88	0x3c80f804	0.015743263
89	0x3d6da8d2	0.058022328
90	0xbd33ad32	-0.043866344
91	0x3d36804e	0.044555955
92	0xbd83fae9	-0.06444342
93	0x3d86980d	0.0657197
94	0xbc527a80	-0.012846589
95	0x3dad0537	0.0844826
96	0xbcc8d404	-0.02451516
97	0xbdb123f6	-0.08649437
98	0xbda8200c	-0.082092375
99	0xbcb73970	-0.022366256
100	0x3da4b93d	0.08043144
101	0xbd4ec8ad	-0.050484348
102	0x3c86590c	0.016399883
103	0xbd12be10	-0.03582579
104	0x3d475d4a	0.04867295
105	0x3d5763ce	0.052585416
106	0xbd0d4c39	-0.03449652
107	0xbc205bc8	-0.009787507
108	0xbbf3ab90	-0.0074362233
109	0x3db4d3b9	0.088294454
110	0x3d0290d0	0.031876385
111	0x3d8ac0f5	0.06775085
112	0xbd625c35	-0.055263717
113	0x3d8e1ba1	0.069388635
114	0x3c0952d8	0.008381568
115	0x3d0395a6	0.032125138
116	0x3d9c982b	0.07646211
117	0xbd43579b	-0.04769097
118	0xbc33cb90	-0.010973826
119	0x3d7c4806	0.061592124
120	0x3d81b5dd	0.06333516
121	0x3d90a5e3	0.070628904
122	0x3b91adf0	0.004445784
123	0x3d886943	0.06660702
124	0x3b734b80	0.003712386
125	0x3c5d5110	0.013508096
126	0x3c813b60	0.015775383
127	0x3b4050a0	0.0029344931
128	0x3c54be58	0.012984835
129	0xbda3a514	-0.079904705
130	0x3da36353	0.07977929
131	0xbcf1727a	-0.029473532
132	0xbcf216d0	-0.029551893
133	0x3d4439fa	0.047906853
134	0xbc8dc3b0	-0.017305225
135	0x3d2cf536	0.04222604
136	0x3d578822	0.05262006
137	0xbd91521c	-0.07095739
138	0x3cef53e4	0.029214807
139	0x3db2a3e9	0.0872267
140	0xbcec988e	-0.028881337
141	0x3cbf0cf0	0.023321599
142	0x3d4cc38e	0.049991183
143	0xbd1d2636	-0.03836652
144	0x3da6c5d7	0.08143204
145	0x3daad99d	0.08342288
146	0x3d8d03d5	0.068854965
147	0xb90f2000	-0.00013649464
148	0x3d533e4a	0.051573075
149	0xbc5df5f0	-0.013547406
150	0x3d8e942b	0.069618545
151	0xbda99e9c	-0.082822055
152	0xbd5964e8	-0.053074747
153	0xbd2d4f23	-0.0423118
154	0x3c473340	0.012158215
155	0x3d817435	0.06320993
156	0x3bd63e60	0.0065381974
157	0x3d20ecda	0.03928838
158	0xbd49367c	-0.049124226
159	0xbd7d392f	-0.061822113
160	0x3cb99860	0.022655666
161	0xbda6ede2	-0.08150841
162	0xbd02cf9b	-0.03193627
163	0xbd636b23	-0.055522095
164	0x3cfaa140	0.030594468
165	0xbd47c232	-0.048769183
166	0xbc8277f0	-0.015926331
167	0xbcca08b4	-0.024662353
168	0x3d8c01e3	0.06836297
169	0xbd076e19	-0.03306398
170	0xbd51efc8	-0.051254064
171	0x3c542f30	0.0129507035
172	0xba8bdbc0	-0.0010670349
173	0x3d1aaba2	0.037761338
174	0x3bc7ecd0	0.0061012283
175	0xbc865114	-0.016396083
176	0xbdafc4c3	-0.08582451
177	0xbd731fd6	-0.059356533
178	0x3ce5d54c	0.02805581
179	0x3d6b4e9a	0.057448007
180	0xbafcf480	-0.0019298941
181	0x3ce2afd4	0.027671732
182	0xbdaa782f	-0.083237045
183	0x3d288d4e	0.041150384
184	0xbd901096	-0.070344135
185	0x3bff9510	0.007799752
186	0xbd872d11	-0.066003926
187	0xbcc550d0	-0.024086386
188	0xbda826b9	-0.08210511
189	0x3d928ad7	0.07155388
190	0x3d9ce945	0.0766168
191	0x3d437f7e	0.047729008
192	0x3c1b08e0	0.009462565
193	0x3c4d35f8	0.012525074
194	0x3da599ab	0.080859505
195	0x3d490152	0.049073525
196	0xbcc575ac	-0.024103962
197	0x3ccdc7ec	0.025119744
198	0xbd4bcd63	-0.04975642
199	0xbca20834	-0.019779302
200	0x3d4d9f06	0.050200485
201	0x3db09347	0.08621841
202	0x380ee000	3.4064054e-05
203	0xbd1f1dc5	-0.03884675
204	0xbbdd63f0	-0.0067562982
205	0xb9057200	-0.00012726337
206	0xbd71e0b3	-0.05905218
207	0x3c2a3f98	0.0103911385
208	0xbd2f94d0	-0.042866528
209	0xbcd19a98	-0.025586411
210	0x3d9e6a7f	0.07735156
211	0xbd837f15	-0.06420723
212	0xbc25a0c8	-0.010109134
213	0xbcc4fec4	-0.024047263
214	0xbd9ac8c7	-0.075578265
215	0xbd9dff7e	-0.07714747
216	0xbda5071b	-0.08057996
217	0xbd4ac6d4	-0.049506024
218	0x3d3c5aa2	0.04598487
219	0x3da0819d	0.07837222
220	0xbd7b82de	-0.0614041
221	0x3d244fae	0.04011505
222	0x3d9c0a25	0.076191224
223	0xbda9aef2	-0.08285321
224	0xbcedead8	-0.029042646
225	0xb8234000	-3.8921833e-05
226	0xbd223c6f	-0.039608415
227	0x3c37aca8	0.011210598
228	0x3c5a15b8	0.013310842
229	0x3d71549a	0.058918573
230	0x3d17e10e	0.037079863
231	0x3d8c84e1	0.06861282
232	0x3ba8c530	0.0051504597
233	0x3d07453e	0.03302502
234	0x3cc3eea8	0.023917511
235	0xbd63aa59	-0.055582378
236	0xbd579993	-0.052636694
237	0x3c7b7478	0.0153475925
238	0xbd8e5cfa	-0.069513276
239	0x3d853bb3	0.06505527
240	0xbbe32c00	-0.0069327354
241	0xbd8dd8a0	-0.069260836
242	0x3ab9e280	0.0014181882
243	0x3d9c1e9f	0.07623028
244	0x3d37f0e6	0.044907473
245	0xbd748ad6	-0.059702717
246	0x3bad7440	0.005293399
247	0xbd0f6ec9	-0.035017762
248	0x3d37d306	0.044878982
249	0x3cdc32c0	0.026879668
250	0x3d6dec42	0.05808664
251	0xbd2cc979	-0.042184327
252	0x3d7cb826	0.061699055
253	0xbd2ab960	-0.041680694
254	0xbda0479e	-0.0782616
255	0xbd8a7e70	-0.06762397

bias f4 [64]
0	0xbcdf4250	-0.0272533
1	0x3ca7a09c	0.020462327
2	0x3c9a66b0	0.018847793
3	0x3ba879e0	0.0051414818
4	0xbd0e1d8a	-0.03469614
5	0xbda1971b	-0.07890149
6	0xbd9e3594	-0.07725063
7	0xbda80029	-0.082031555
8	0xbcddefda	-0.02709191
9	0x3d39e0d2	0.04538042
10	0xbbb920c0	-0.005649656
11	0xbd25a25d	-0.040438045
12	0x3b466e80	0.0030278265
13	0xbd9a2288	-0.075261176
14	0xbd373245	-0.044725675
15	0xbb0a5600	-0.002110839
16	0x3d53b6b6	0.05168792
17	0xbd9cd71e	-0.07658218
18	0xbbf56a00	-0.007489443
19	0xbda563c6	-0.08075671
20	0x3d48096e	0.048837118
21	0x3d67aa9a	0.056559183
22	0xbd95e7e1	-0.07319618
23	0x3d4dccaa	0.05024401
24	0xbd94c951	-0.072649606
25	0x3d88e289	0.06683833
26	0x3bef7750	0.0073079243
27	0xbc50b2b8	-0.012737922
28	0xbca0b550	-0.019617707
29	0xbbd752f0	-0.006571166
30	0x3ce5da00	0.028058052
31	0xbd3d30a0	-0.04618895
32	0x3c45c9c8	0.012072034
33	0xbb60f380	-0.0034324825
34	0x3d9abe7b	0.075558625
35	0x3d3e6352	0.046481438
36	0x3b871580	0.004122436
37	0xbce081dc	-0.027405672
38	0x3d05c08a	0.032654323
39	0x3d03e22c	0.032198116
40	0x3c9f8b98	0.019475743
41	0xbd24b89f	-0.04021513
42	0xbd42e621	-0.04758275
43	0x3d8ac171	0.06775177
44	0xbc779748	-0.015111752
45	0xbccc7c18	-0.024961516
46	0xbd303fd2	-0.043029614
47	0xbd48079d	-0.048835386
48	0x3cde52b8	0.027139053
49	0xbda7ef6f	-0.08199965
50	0x3d86f773	0.06590166
51	0xbcfa3364	-0.030542083
52	0x3d8216f3	0.063520335
53	0x3d37168e	0.044699244
54	0xbd9a94b6	-0.075478956
55	0xbd873c44	-0.06603292
56	0xbbca1090	-0.006166525
57	0xbd036a2c	-0.032083675
58	0xbd64f7c2	-0.055900343
59	0x3c340590	0.010987654
60	0xbd5451e2	-0.051835902
61	0xbd867555	-0.06565348
62	0x3d35a45e	0.044346206
63	0x3d1cd85a	0.038292266

weight f4 [2, 128]
0	0x3d221a45	0.039575834
1	0x3cee4ae7	0.02908845
2	0xbd072952	-0.03299839
3	0xbc81a0aa	-0.01582368
4	0x3d4d7915	0.0501643
5	0x3d4664f8	0.048436135
6	0x3e4ea3ec	0.20179719
7	0x3ba57fef	0.0050506513
8	0x3d294a84	0.04133083
9	0xbdda8144	-0.10669187
10	0x3d3d6997	0.046243276
11	0x3c16c72f	0.0092027625
12	0x3da9d861	0.08293224
13	0x3d21118f	0.039323386
14	0xbdf77d35	-0.12084428
15	0xbc8744c3	-0.01651228
16	0x3ec6d6c6	0.38835734
17	0xb935cbe0	-0.00017337454
18	0x3bed654c	0.0072447415
19	0xbcbff8da	-0.023434091
20	0x3dab9601	0.0837822
21	0x3cebd58e	0.028788354
22	0x3d909e4b	0.07061442
23	0x3e04bbd9	0.12962283
24	0x3d5499b4	0.051904395
25	0x3dbac4e3	0.091195844
26	0xbdb928f7	-0.090410165
27	0xbca8e3bb	-0.020616403
28	0xbd3fc47d	-0.046818245
29	0x3e1d97b6	0.15389904
30	0xbc879032	-0.01654825
31	0xba297ad2	-0.000646514
32	0x3cd5e610	0.026110679
33	0xbdcaf378	-0.09909719
34	0xbb2d1dea	-0.0026415535
35	0xbca30dbe	-0.019904014
36	0x3cd378ae	0.02581438
37	0xbd8f57a9	-0.06999142
38	0x3c8cc860	0.01718539
39	0x3bb6d2a5	0.00557931
40	0x3e7303aa	0.23731866
41	0x3d649254	0.055803612
42	0xbdb44f0e	-0.08804141
43	0x3dd2780f	0.102768056
44	0x3d33755f	0.043813106
45	0xbd9daef4	-0.07699385
46	0xbc519e8c	-0.012794148
47	0xbd4cb95e	-0.049981467
48	0xbdb70e42	-0.08938266
49	0x3c414d6d	0.011798245
50	0x3e0c2559	0.13686122
51	0x3c8f81c4	0.017517932
52	0xbd9d918c	-0.076937765
53	0x3e20ea5c	0.15714401
54	0x3d93b3e9	0.072120495
55	0xbde0bcb7	-0.109734945
56	0x3c25b207	0.010113246
57	0x3e630f2f	0.22173761
58	0x3d3bcc2a	0.045849003
59	0xbd808a8e	-0.06276427
60	0x3ca5723a	0.020196069
61	0xbd229970	-0.03969711
62	0x3dcb7e67	0.09936219
63	0x3bae70b0	0.005323492
64	0x3e0b85a5	0.136252
65	0xbdc7e5a4	-0.09760597
66	0x3d357d12	0.04430873
67	0x3db3fac2	0.08788063
68	0x3de733c9	0.11289174
69	0x3d8c5384	0.06851867
70	0x3c873e85	0.016509304
71	0xbd8d8e64	-0.069119245
72	0x3dc0d7bd	0.09416149
73	0xbc3c92ff	-0.011509656
74	0xbd3db8e0	-0.04631889
75	0xbd7292f1	-0.059222165
76	0xbcfaffc1	-0.030639531
77	0xbd52c4c7	-0.051457193
78	0x3b02008c	0.0019836752
79	0x3d1c9eee	0.038237505
80	0x3e35fbec	0.17771882
81	0xbd836051	-0.06414855
82	0x3daa72ab	0.083226524
83	0xbcd9a08e	-0.026565816
84	0xbdfafc9a	-0.12255211
85	0xbe234ed3	-0.15948038
86	0x3d6ef006	0.058334373
87	0xbe157548	-0.1459552
88	0xbda1a3d7	-0.07892578
89	0xbd17762f	-0.036977943
90	0x3d8e80d5	0.069581665
91	0xbd9132b7	-0.07089751
92	0x3ee17adb	0.44039044
93	0x3d24045f	0.04004323
94	0xbe84775f	-0.25872323
95	0x3c57347d	0.013135073
96	0xbd22edac	-0.039777443
97	0xbc1302ef	-0.008972867
98	0x3de9585d	0.11393807
99	0xbc7c1eb1	-0.015388177
100	0x3d4cdbf0	0.050014436
101	0x3d1b2e1e	0.037885778
102	0xbe8ec56f	-0.27885005
103	0x3e7ffc0d	0.24998493
104	0x3e4ed0f7	0.20196901
105	0xbcd9d350	-0.02659002
106	0xbe3ca382	-0.18421748
107	0x3d267a32	0.04064388
108	0x3d2c1507	0.04201224
109	0xba920bcc	-0.0011142432
110	0x3c0c72b3	0.008572268
111	0xbd27ee02	-0.040998466
112	0x3c3e5321	0.011616499
113	0x3daaedcf	0.0834614
114	0x3d87334d	0.06601582
115	0xbd84a6f3	-0.064771555
116	0xbd3de1d4	-0.046357945
117	0x3e504b97	0.20341335
118	0xbbcc5fbc	-0.0062369984
119	0x3d813ace	0.06310044
120	0x3e29fdea	0.16600767
121	0xbd3097a3	-0.043113362
122	0xbda31253	-0.079624794
123	0xbc9108f0	-0.017704457
124	0x3d2841f7	0.041078534
125	0x3cca878c	0.024722837
126	0x3dde8c2b	0.10866579
127	0x3e63907c	0.22223085
128	0xbdfc3fee	-0.12316881
129	0xbd330dc9	-0.04371432
130	0xbccb60c9	-0.024826424
131	0x3c80d15a	0.015724827
132	0x3d6b07ee	0.05738061
133	0x3d604359	0.054751728
134	0xbe028a6a	-0.12748113
135	0x3cb287c9	0.021793263
136	0xbd020406	-0.03174212
137	0x3de0e96d	0.109820224
138	0xbcc83a62	-0.024441902
139	0xbdf9d7c6	-0.12199359
140	0xbdc111df	-0.09427237
141	0xbe004a4d	-0.12528343
142	0x3e1240d3	0.14282541
143	0xbbdab045	-0.006673845
144	0xbec47b49	-0.3837531
145	0xbc5e912f	-0.013584419
146	0xbd90a38e	-0.070624456
147	0xbcece4ad	-0.028917635
148	0x3d7095c2	0.05873657
149	0xbda78ddf	-0.08181357
150	0x3d854481	0.06507207
151	0xbe81c77e	-0.25347513
152	0x3d6a7d5e	0.057248466
153	0xbddf6181	-0.10907269
154	0x3ddf0959	0.10890455
155	0xbc937a52	-0.018002663
156	0xbcdb1b5a	-0.02674644
157	0xbe44f787	-0.19235049
158	0xbcafcb48	-0.021459237
159	0x3bdb529b	0.006693197
160	0x3d2b69ae	0.04184883
161	0xbd309cea	-0.043118395
162	0xbc63a7b7	-0.013894967
163	0x3d5e8979	0.054330323
164	0xbcdb4a72	-0.026768897
165	0xbd8a0240	-0.067387104
166	0xbd7996f7	-0.060934987
167	0x3d0cdb9d	0.034389127
168	0xbe75f82b	-0.2402045
169	0xbcb6a94a	-0.02229752
170	0x3db62c34	0.0889515
171	0xbd9c9a5a	-0.07646628
172	0xbd74130c	-0.059588477
173	0xbda5d82b	-0.080978714
174	0xbd1baa5a	-0.038004257
175	0xbd91ec53	-0.071251534
176	0x3d288206	0.041139625
177	0x3d33daba	0.043909766
178	0xbe3f9da3	-0.18712477
179	0xbc79a812	-0.015237825
180	0xbcb1bdc6	-0.021696936
181	0xbe6faace	-0.23405
182	0xbe35d19c	-0.17755741
183	0x3df57821	0.119858034
184	0xbc2fde63	-0.0107341735
185	0xbe60083b	-0.2187814
186	0xbe10da60	-0.14145803
187	0xbba747f2	-0.005105012
188	0xbddc0ab6	-0.107442304
189	0xbd249289	-0.04017881
190	0xbdcbd53d	-0.09952781
191	0xbd147f2c	-0.036254093
192	0xbe1cfcea	-0.15330854
193	0x3d56b8ee	0.052422456
194	0x3d778ab0	0.060434997
195	0xbd9f7436	-0.07785837
196	0xbe048f79	-0.12945355
197	0xbe089b22	-0.13340428
198	0xbd8ad25e	-0.067784056
199	0xbcad9e5a	-0.021193672
200	0x3d826f07	0.06368833
201	0x3d29de2d	0.04147165
202	0xbd4401a1	-0.047853116
203	0xbd490d0d	-0.04908471
204	0x3c9b3aa4	0.01894886
205	0x3dc5936e	0.096472606
206	0xbd61dc14	-0.055141523
207	0x3d4b88f8	0.04969117
208	0xbe041028	-0.12896788
209	0x3da2bea1	0.07946516
210	0x3d536ea3	0.051619183
211	0x3c26e48c	0.010186326
212	0x3e20ee55	0.15715916
213	0x3e146d69	0.14494862
214	0xbbbbc340	-0.0057300627
215	0x3e8bff87	0.2734339
216	0xbd803a12	-0.06261076
217	0x3cdb5c31	0.026777359
218	0x3d3fa5d8	0.04678902
219	0x3cc8f28d	0.02452972
220	0xbea2cc30	-0.31796408
221	0x3ceb4ea4	0.028724022
222	0x3e61fe4c	0.22069663
223	0xbc599cbe	-0.013281999
224	0xbcdff1b0	-0.027336925
225	0x3d39244b	0.045200627
226	0xbe616cf3	-0.22014217
227	0x3e016f66	0.12640151
228	0x3cf58a92	0.029973302
229	0xbe209f80	-0.15685844
230	0x3e2ed228	0.17072356
231	0xbe7f6503	-0.24940877
232	0xbdb51d72	-0.08843507
233	0x3db982cf	0.09058153
234	0x3e3cf246	0.18451795
235	0x3a7beadc	0.0009609887
236	0x3d37b665	0.04485168
237	0x3cf19e24	0.029494353
238	0x3d9fa79f	0.07795643
239	0x3da695e8	0.08134061
240	0x3d82cee7	0.0638712
241	0xbd24623d	-0.04013275
242	0xbd288bb8	-0.04114887
243	0x3da38206	0.079837844
244	0xbdbeff01	-0.09325982
245	0xbdeaeabb	-0.114705525
246	0x3e012281	0.12610818
247	0x3bc59c20	0.0060305744
248	0xbe00338b	-0.12519662
249	0xbc5d7e80	-0.0135189295
250	0xbd814cd5	-0.06313483
251	0xbbef25a0	-0.0072981864
252	0x3d1c20bc	0.038117155
253	0x3cb0efa2	0.02159864
254	0xbdec209d	-0.11529658
255	0xbe653e4d	-0.22387047

bias f4 [2]
0	0x3dac9976	0.08427708
1	0x3b828225	0.0039827996
