python/finalModels/myRNN_with_Notes.pth (torch_old, 12510 bytes, 6 tensors)

weight_ih_l0 f4 [48, 1]
00000000: eec3 963d 135e ae3f e550 893d ff73 0e40
00000010: 5e8d 863e 21cd d33e 5190 c8bd 67d6 d13e
00000020: f3cf bebe f274 59be b102 35bd 4122 b73f
00000030: 05b0 8cbf 20a8 223c 0456 33be 960d d53e
00000040: ce17 c1be a69c 41bd 202e 6fbb 50da b4bc
00000050: 6da7 f33e 1a56 3a3d 5b7d febe ed2b c5bd
00000060: 3153 33be af8e 23bf bb25 d73b 77a9 c13d
00000070: a703 023f 470d 80bc a7d9 97be 4421 cc3d
00000080: 570d 083c 6cc8 08bd b957 a63c c754 da3c
00000090: 5abd a33d 560b 983d e767 fdbd a487 583e
000000a0: 3bda 933c 9c89 59be e3b9 b53e 6ebc 1ebf
000000b0: b20e 1440 d0af 03bd f396 3c3e 85e9 003d
0.07361589 1.3622459 0.067048825 2.2258298 0.2627973 0.41367438 -0.09793151 0.40983889
-0.37268028 -0.21236017 -0.04419202 1.4307328 -1.0991217 0.009927779 -0.17513281 0.41611928
-0.37713474 -0.047268532 -0.0036495999 -0.022076756 0.47588673 0.04549227 -0.49705014 -0.09627519
-0.17512204 -0.6388959 0.006565777 0.09456151 0.50786823 -0.015631331 -0.29658243 0.099672824
0.008303962 -0.033394262 0.020305501 0.026651753 0.079951 0.07424037 -0.123733334 0.21145493
0.018048396 -0.212439 0.35493383 -0.6200627 2.313397 -0.03215009 0.18416958 0.0314727

weight_hh_l0 f4 [48, 16]
00000000: 83f3 2c3e a934 7abe 896e 8c3d 93c0 013e
00000010: 19ba 213e 0830 d53d 4565 74be c6c1 983e
00000020: 307f db3e c99c 87bd c110 10be 9b2c 60be
00000030: e3fb 78be fa9c bcbd bde2 4f3e 5412 c1be
00000040: 80c9 c63e d3c8 03bf 7a19 ddbe 2a42 013f
00000050: 6af9 763e f041 fb3e fc56 62be 2a7f c13d
00000060: 8236 423e 2ce5 ba3e 03ba 92be e4d2 fbbe
00000070: e32c a0bd c6e7 aebd 24c2 93bd c0b1 04bf
00000080: d3d6 893d f6cb bbbe 383f bfbe 413d 943f
00000090: 2ce5 b43e 7543 0e3f f5f8 543e 3960 e93d
000000a0: 79c9 3c3e 57ff 5c3e b6fe 4b3d 951b d2be
000000b0: 577d 703d 9e16 b5be 2062 843e 076d 7cbe
000000c0: 9f01 c63e 3063 04bf 7625 15be 8c95 5e3e
000000d0: 7d68 073f 194f de3d d16d 5d3c 7ca9 b03e
000000e0: fd18 13bb 05bc a13e 0b34 17be d5c5 e4be
000000f0: 0367 a73e f98e 0cbf b31f d4be fb7e 0ebf
00000100: 4d4f 243e 7b1f 97bd 5d95 04be f8a5 29bd
00000110: 0ab9 d53e b22b 253d 2d04 2cbf 0869 d53d
00000120: a476 b0be b95c 3ebf 9c25 5e3f 70b4 233e
00000130: f6d3 e0be 18b6 c23d 239d 233f c354 d6bd
00000140: f487 b83e 1a0a 7abe 4f77 05be e907 913e
00000150: b544 083c ee99 2e3e ac05 15bf f792 0a3c
00000160: 93f8 153c 66f4 b9be cd0c 773e 90f4 94be
00000170: 9990 05bf 03ba 8abe 88a5 913e 7c4f 32be
00000180: 79b6 3f3e 2264 23bc 2eca ddbe bab2 b83d
00000190: c515 8a3e 351b 8abd 48d7 783e 016b a33e
000001a0: 9891 78bd 3692 2fbe f4fc 0cbf 3ba9 3dbe
000001b0: 797f 98bd 7171 7cbe c3f9 41be 2b88 ef3d
000001c0: 7234 58bd 94fd 97bd 65ab 44be b14a cf3e
000001d0: 9304 ad3e 7cb7 0cbe f600 8cbe 9fdf 003e
000001e0: 3361 fdbc b24a e0be b556 263b 29b2 023e
000001f0: 6fc3 6abe 0650 c7bd a4cf d73e 8cab 65be
00000200: f92f 2fbd 4869 153e 78e1 02be 94bb ac3e
00000210: 73f9 d1bc 9ea6 32be 840e 8abe 7434 943d
00000220: abe8 223e c9de 4ebf e64c 08bf 986a 4cbe
00000230: 079e d13e 882a 5c3e 665a 0b3f 82bf 813e
00000240: ef21 cdbd 1bb0 6ebd 6452 2bbe 0dfd df3e
00000250: 036d 02be 7310 903e 8b01 f73d 6093 3f3e
00000260: 7d4c 16be b0dd 813d 9b62 b93e adbd 40be
00000270: 40ff 9f3e f2c7 82be d67b 8b3b ed2c 8dbe
00000280: 9f7e fb3d af3b 03bf 94b0 98be 5991 7a3e
00000290: 182a 083f 1ac4 013f 61cb eebd 7c51 6c3e
000002a0: 23f5 c13c 2148 563e 7daa 22bf 1a2e 12bf
000002b0: c46a c63d 70e8 41be 963d 383d 2419 0fbf
000002c0: f5e9 c03e df05 17bf 3fe1 90be 579d 123f
000002d0: 8877 c83c 40b3 893e d8d6 80be 6e94 c43d
000002e0: f9e1 b93d 4314 013e e75b 3d3b d21d 12bf
000002f0: a230 e03c d513 36be 2e74 40be 6f7d 82be
00000300: 3e96 a03e f3a6 c3be 727a 2fbe 659d 323c
00000310: 9376 473d 029a 8dbc 4db1 093e c65c 0cbd
00000320: 5d4f aabe 0277 263d 8a59 a9be 22ea 953d
00000330: 5f06 58bf aad5 943c 3e2b cebe 5c86 01bd
00000340: fca7 8d3d f760 eabe 65a7 f5be 9f2e e43e
00000350: 46a1 7d3e a03d 5d3e 7f5e 71be e527 233e
00000360: 1f2b 313d 6792 1d3e ecd2 763e 2b6c afbe
00000370: 34af e6bb 1919 efbc 5ac6 cabc dee1 1b3d
00000380: 607d bc3e 4c70 94be 77b6 a0bd df69 f43c
00000390: 8eb1 883d 8733 e53e 61a5 b1be 5ed9 953e
000003a0: ab1f 9f3d 4545 89be a67e 96bc bddb 1cbe
000003b0: 2738 b3be 6754 90be bb36 0cbf d3b9 cfbe
000003c0: f216 af3e 9ff2 27bf 99b6 f6be 8ae2 503e
000003d0: cf62 a03e d284 8a3e 0396 01bf be1e 9f3d
000003e0: cf7e 4a3d 000b b03c aaa4 9abe 7935 a9be
000003f0: 378f a3bd 658d d4be 844d 1ebe c223 1cbf
0.16889767 -0.24434151 0.068570204 0.12671117 0.15793647 0.10409552 -0.23866756 0.29835337
0.42870474 -0.06621701 -0.14068891 -0.21892016 -0.24314837 -0.092096284 0.20301338 -0.37709296
0.38825607 -0.5147831 -0.431835 0.50491583 0.24118581 0.49073744 -0.22103494 0.09448083
0.18966106 0.3650297 -0.2865754 -0.49184334 -0.078210615 -0.08540301 -0.07214764 -0.51833725
0.067304276 -0.36679047 -0.3735292 1.1581193 0.35331094 0.5557168 0.20798095 0.11395306
0.1843623 0.2158178 0.04980346 -0.41036668 0.058713283 -0.35368818 0.25856113 -0.24650966
0.38673112 -0.5171385 -0.14565071 0.21736735 0.5289381 0.108549304 0.013514952 0.34504306
-0.0022445314 0.3158876 -0.14765947 -0.44682184 0.3269578 -0.5490566 -0.41430435 -0.55662507
0.16045876 -0.07379051 -0.12947603 -0.041418046 0.41742736 0.040324874 -0.6719387 0.10420424
-0.34465516 -0.74360234 0.8677614 0.159868 -0.43911713 0.09507388 0.63911647 -0.10465386
0.36041224 -0.24417916 -0.13033794 0.28326347 0.008317162 0.17050907 -0.5821178 0.008457891
0.009153503 -0.36319274 0.24125977 -0.29092836 -0.52173764 -0.2709504 0.28446603 -0.17413133
0.18721952 -0.009972604 -0.43318313 0.090184644 0.26969734 -0.067434706 0.24300873 0.31917575
-0.060685724 -0.17145619 -0.55073476 -0.18521588 -0.074461885 -0.2465265 -0.18942933 0.11695894
-0.05278439 -0.07421413 -0.19206007 0.40486673 0.33792552 -0.13741869 -0.27344483 0.12585305
-0.030930137 -0.43806988 0.0025381271 0.12763275 -0.22926114 -0.0973206 0.42150605 -0.22428721
-0.04277036 0.14590943 -0.12781322 0.3373686 -0.025631642 -0.17446372 -0.269642 0.07236567
0.15909068 -0.80808693 -0.5324234 -0.19962537 0.40940878 0.215006 0.5443481 0.2534142
-0.10016238 -0.058273416 -0.16730648 0.4374775 -0.12736897 0.2813755 0.12060841 0.18708563
-0.14677615 0.06341112 0.36208043 -0.18822356 0.31249428 -0.2554317 0.0042567058 -0.27573338
0.122800104 -0.51262945 -0.29822218 0.24469508 0.5318923 0.5068985 -0.11659885 0.23077959
0.02367646 0.20925952 -0.63541394 -0.57101595 0.09688333 -0.18936324 0.044980608 -0.55897737
0.37678495 -0.58993334 -0.2829685 0.5727133 0.02447106 0.2689457 -0.25163913 0.09598623
0.09076304 0.12605385 0.002889389 -0.5707675 0.02736694 -0.17781003 -0.18794319 -0.25486323
0.31364626 -0.3821331 -0.17136553 0.010901784 0.048697066 -0.01728535 0.13446541 -0.034268163
-0.33263674 0.04064084 -0.33076125 0.07320048 -0.8438472 0.01816829 -0.40267366 -0.031622276
0.06916806 -0.45777103 -0.47979274 0.4456682 0.24768552 0.2160554 -0.23571204 0.15933187
0.043254014 0.1538788 0.24103898 -0.34262213 -0.007039929 -0.029186772 -0.024752785 0.0380572
0.36814404 -0.28991926 -0.078473024 0.02983564 0.06674491 0.44765875 -0.34696487 0.292674
0.07769712 -0.2681066 -0.018370938 -0.15318199 -0.35003778 -0.28189394 -0.5477101 -0.4057146
0.34197193 -0.65604585 -0.48186186 0.20398918 0.31325385 0.2705446 -0.50619525 0.077695355
0.04943734 0.02148962 -0.30203754 -0.3304861 -0.079863004 -0.41514125 -0.15459257 -0.6099206

bias_ih_l0 f4 [48]
00000000: 32b1 c43e 3eca 193f 096c 8f3e b71f e8bb
00000010: dd90 b83d 5cc9 58bd bf6e ea3d bf1e b93d
00000020: 411b 02be 52be 87bd 6b6d a63e 536e fb3d
00000030: 6460 dd3c 2f0c d43e 794d 36be cbbc 5c3e
00000040: b55a e23d 9439 bfbe 9fca 1cbe 761b 943e
00000050: ea79 b8be a76c 02be 3e47 ca3d 17da 4c3e
00000060: db08 29bf 9a66 b53e 6bb2 f23e 0313 093f
00000070: dc66 f3bc aa83 dfbc 0f61 2a3e cfa1 923e
00000080: 30b0 f7bd 9b2e 373e 247b b63d 02ca 543e
00000090: 203c f73d 8faf 6b3e 060e 333e b4a1 fb3b
000000a0: 9447 4dbe ff42 0ebe 4544 af3e 9efd 163e
000000b0: 5d65 323b 21e0 0bbe 32c0 233f addb 49bd
0.3841644 0.6007422 0.28012112 -0.007083859 0.090120055 -0.052926406 0.114469044 0.090390675
-0.12705709 -0.066280976 0.32505354 0.12276902 0.027023502 0.41415545 -0.17802991 0.21556394
0.11052457 -0.37348616 -0.15311669 0.289272 -0.36030513 -0.1273676 0.098768696 0.2000507
-0.6602914 0.3542984 0.47401747 0.53544635 -0.029712133 -0.027284462 0.16638587 0.28639075
-0.12094152 0.17888872 0.08910206 0.20780185 0.12072015 0.23016189 0.17485818 0.0076791886
-0.20046836 -0.13892744 0.34231773 0.14745185 0.0027221062 -0.13659717 0.6396514 -0.049281765

bias_hh_l0 f4 [48]
00000000: eaee 853e ce20 e83e eea1 b63d 0a8b ce3e
00000010: 8b04 12be 3850 393e dd12 893e 01c7 403e
00000020: 8ccd f13d 5f38 643d 4b45 f23e 7526 503e
00000030: 29d7 a63e a72d 5c3e 75be 053e b924 8f3e
00000040: b73e 9c3d 82f2 75bd 15a6 213e 6600 c43d
00000050: 562a 3cbe 148b b03e 377c 043e e4c4 b73c
00000060: 072e d2be 6a01 843e e548 df3e 1954 4e3e
00000070: 2350 80be 1afa 89be be1e b03d 13a5 da3e
00000080: 1258 683e 6e8e d13e 6170 90be 26c7 5f3d
00000090: 4923 2e3e 0236 00be 8f72 dbbd 14e5 9d3e
000000a0: f5d6 2e3d 2389 773c bfa5 c43e 716c 103d
000000b0: bac2 febd ff01 653e bc84 2e3e 84e6 2e3e
0.2615884 0.45337528 0.089176044 0.40340453 -0.14259546 0.18097007 0.26772204 0.18825914
0.11806783 0.055717822 0.4731849 0.2032717 0.3258603 0.2150179 0.13060935 0.27957705
0.076291494 -0.060045727 0.15786012 0.095703885 -0.18375525 0.34481108 0.12938009 0.022432752
-0.4105074 0.2578233 0.43610302 0.20149268 -0.2506114 -0.26948625 0.085996136 0.42704067
0.22689846 0.40928978 -0.28210738 0.054633282 0.17005648 -0.12520602 -0.1071521 0.30838835
0.042685468 0.01510838 0.38407704 0.035259668 -0.12439485 0.22364043 0.17042822 0.17080122

weight f4 [5, 16]
00000000: 1985 db3e 18dc dcbe d8d4 67bf fdea f23e
00000010: 993e 3a3e f9a1 8c3e 2192 5dbe 42d5 dc3e
00000020: 543d 733e 869a f23d aa22 6c3e ee75 c6be
00000030: 8cfb c93f b675 c5be cc07 e7be ac4e a8bd
00000040: 372b 3c3d ab08 e4be 9d5d a13f 20a1 553e
00000050: f9d6 993e 8050 043e 5d20 87be 0c4e 303d
00000060: a1d6 833e d6bb 17be c01a 0fbf 2eec a53a
00000070: ce59 fcbf 0d03 25bc 72bc 243f 5f51 40be
00000080: 2fcb 4bbf ce6e 2a3f 6d2f 5bbc 498a 79bf
00000090: aaea 67bf 049e 44bf 56c1 0e3f 974b 3dbf
000000a0: 9696 29bf 5a74 023f 5fd6 6d3f 9b8d 033f
000000b0: e999 b0be 5bfa 373f 8d97 9dbe b63e 853f
000000c0: ba60 ddbe 0766 383f ff6b 85bc 2c92 74bf
000000d0: c9b6 77bf 5b59 59bf 534c e83e 049b 4bbf
000000e0: f54e 35bf f615 f93e e7cb 413f bcf6 f93e
000000f0: eed5 11bb d084 4d3f d102 dfbe ff57 863f
00000100: 008b 1fbf c910 123f 328f b23d 992a 7dbf
00000110: 5e15 6bbf 6ac5 68bf 5cd9 153e 4110 a1bf
00000120: 1bad e6be ecfb 093f c210 693f 1528 f33e
00000130: 991f 67be fcab 343f 8f64 a7be b412 9a3f
0.42874983 -0.43136668 -0.9055915 0.47444907 0.18187942 0.27467325 -0.21637775 0.43131453
0.23753864 0.11845879 0.23060098 -0.38761848 1.5779891 -0.3856637 -0.45123136 -0.082181305
0.04593965 -0.44537863 1.2606694 0.20862246 0.30046824 0.12921333 -0.2639188 0.04304318
0.25749686 -0.14817747 -0.5590019 0.0012658888 -1.9714906 -0.010071528 0.64350045 -0.1878104
-0.7960691 0.66575325 -0.013378006 -0.9747663 -0.90592444 -0.7680361 0.5576376 -0.73943466
-0.662454 0.5095879 0.9290523 0.5138795 -0.34492424 0.7186639 -0.30779687 1.0409763
-0.4323786 0.7203068 -0.016286848 -0.9553554 -0.96763283 -0.8490197 0.4537073 -0.7953341
-0.70823604 0.48649567 0.75701755 0.48821056 -0.0022252756 0.8028078 -0.43556836 1.0495604
-0.6232147 0.5705686 0.087187186 -0.98893124 -0.9182948 -0.9092623 0.14633697 -1.2583085
-0.45053944 0.5390003 0.91041195 0.47491518 -0.22570647 0.7057493 -0.32693908 1.2036958

bias f4 [5]
00000000: b0b3 7d3e d5cc 153e fbf7 ffbe 3772 14bf
00000010: 0940 b0be
0.24775577 0.14628918 -0.49993882 -0.5798678 -0.34423855
