python/finalModels/myRNN_with_Out_Notes.pth (torch_old, 12510 bytes, 6 tensors)

weight_ih_l0 f4 [48, 1]
0.5135794 0.4298339 -0.048812676 0.00921884 0.28186268 -0.10535781 0.4356272 0.08659361
0.34603772 -0.0012127511 -0.65163624 -0.7876771 -0.040395033 0.60879165 0.5275263 0.25994375
-0.2871923 0.02104155 -0.3512645 0.2577176 -0.5242137 0.22115748 0.16648419 -0.04786645
-0.06598269 -0.11636786 -0.25979206 -0.077699125 -0.037930626 -0.124386705 -0.015538643 0.006314302
0.03453625 0.2720935 0.20341443 -0.19138885 0.17514637 -0.21930459 0.51640064 0.17945126
-0.4215904 -0.24733892 0.2326018 0.049729932 -0.034777362 -0.19176893 -0.03508532 -0.036097173
00000000: f179 033f 3013 dc3e cdef 47bd 9e0a 173c
00000010: 4e50 903e d6c5 d7bd 870a df3e fe57 b13d
00000020: db2b b13e 2df5 9eba a2d1 26bf 35a5 49bf
00000030: 4375 25bd c5d9 1b3f f70b 073f 5917 853e
00000040: df0a 93be 545f ac3c f1d8 b3be 90f3 833e
00000050: de32 06bf 1b77 623e d57a 2a3e 9c0f 44bd
00000060: ef21 87bd 4652 eebd 7703 85be b820 9fbd
00000070: 255d 1bbd 75be febd cb95 7ebc 34e8 ce3b
00000080: e275 0d3d d74f 8b3e df4b 503e 70fb 43be
00000090: 9259 333e 6291 60be d532 043f 12c2 373e
000000a0: b2da d7be 6a46 7dbe 2b2f 6e3e 9db1 4b3d
000000b0: b572 0ebd 135f 44be a0b5 0fbd a1da 13bd

weight_hh_l0 f4 [48, 16]
-0.20051762 -0.05772941 -0.14545472 0.57009554 0.08067461 -0.7904237 0.76944315 0.0075493776
-0.20172898 -0.096146725 0.047636256 0.03864746 -0.29020774 -0.0686596 0.06934608 0.14423697
-0.50104284 -0.07883732 -0.24207498 0.39171803 0.6070262 -0.7060172 0.6861512 0.66487783
-0.6394488 -0.55132514 0.08288848 0.4222749 -0.40862677 -0.59568805 -0.053851727 0.36262146
-0.40800804 0.5863871 -0.07432206 0.37851238 0.53994817 -0.29218128 0.5540582 0.23191877
-0.3609829 -0.2823193 0.19735725 0.16443397 -0.06486295 -0.12398142 -0.27387834 0.02707146
-0.18855383 -0.34357765 -0.19903557 0.46405286 0.22762167 -0.6404923 0.25135836 0.036995042
-0.17902917 -0.42424855 -0.015839145 0.100879595 -0.38456303 0.009976124 0.09712194 0.41422185
0.021449843 0.29980972 0.045663547 0.10348798 -0.22485454 -0.117540404 -0.04891699 -0.07742496
0.14396963 0.0056079063 0.2517929 0.16845578 -0.06370794 0.28694186 -0.018357407 0.19789474
-0.14621462 0.037439723 -0.1731945 0.16349205 0.10586989 -0.22207695 0.3810337 0.13940719
-0.31690186 -0.10274733 -0.29055816 0.058134895 -0.249605 -0.092587836 -0.7425192 0.031200126
-0.4454401 0.25363007 0.13778749 0.33022508 0.4709715 -0.31359807 0.18141884 0.45019782
-0.45080075 -0.48346522 0.2699226 0.1776954 -0.38386714 -0.43046692 -0.2228981 0.42886603
-0.20713408 0.23314871 0.19786455 0.36602932 -0.2629465 -0.1123998 0.09273016 0.27777278
-0.09177687 0.0055619366 -0.2346775 0.0032356866 0.30847847 0.449938 -0.20209174 0.4191353
-0.48136327 -0.32096085 -0.09609682 0.1525485 0.277251 -0.18504469 0.31227383 0.25023016
-0.32051387 -0.3575283 -0.077124104 0.017579282 -0.1596613 0.061309952 -0.24859796 -0.0014186988
-0.5759699 0.057310067 0.0028510406 0.17974415 0.45899403 -0.24304326 0.26163498 0.38379914
-0.37409168 -0.34150282 0.17181802 0.16880852 -0.07081863 0.072248675 0.071574815 -0.13142198
0.040757034 0.43174988 -0.005551267 0.017881414 0.21554178 0.18527576 0.13877283 0.088381104
0.09464498 -0.36430597 0.11151852 0.73810416 -0.7271514 -0.9341307 -0.18326315 0.054260407
-0.1247 0.365836 0.318265 -0.017980732 0.4382912 -0.29047316 0.073406465 0.37928164
0.029000765 -0.17732306 -0.043479957 0.2536244 -0.4478532 -0.34355912 -0.09159208 0.18610214
0.4485356 0.3156564 0.5867463 -0.07734029 -0.16715208 0.10246251 0.047433358 0.15759668
-0.13800645 0.18685605 0.0854572 0.22805868 -0.086383976 -0.16156971 -0.26483136 0.0665969
0.20530078 0.72646743 0.59515774 -0.079578936 -0.14936025 0.454335 0.09343401 0.07035883
0.18605308 -0.05584286 0.56685555 0.6248696 -0.2810568 -0.08650535 -0.25351995 -0.13336055
0.26531047 0.53733724 0.539953 0.13825762 0.04153432 0.520506 -0.05246104 -0.14133883
0.13762146 -0.13092315 0.3133528 0.38258585 -0.23196378 -0.08148814 -0.14041321 -0.59445083
-0.14039856 0.5766197 -0.4518256 0.5523745 0.30656523 -0.41942036 0.31987935 0.39533085
-0.22138694 -0.11988656 0.15476815 0.09988692 -0.51518077 -0.29135782 -0.44502315 0.42214143
00000000: 7e54 4dbe ac75 6cbd 15f2 14be c8f1 113f
00000010: bb38 a53d 3559 4abf 3afa 443f c560 f73b
00000020: 0b92 4ebe 93e8 c4bd 3c1e 433d cd4c 1e3d
00000030: 1c96 94be 689d 8cbd 5105 8e3d dbb2 133e
00000040: 5844 00bf 7675 a1bd 81e2 77be 448f c83e
00000050: 1266 1b3f 8bbd 34bf 9ba7 2f3f 6f35 2a3f
00000060: ebb2 23bf a523 0dbf 6fc1 a93d 6a34 d83e
00000070: 8737 d1be 037f 18bf a193 5cbd 85a9 b93e
00000080: 6ee6 d0be 771d 163f 2a36 98bd 60cc c13e
00000090: 0b3a 0a3f c998 95be c2d6 0d3f 1d7c 6d3e
000000a0: c0d2 b8be 288c 90be 0518 4a3e 6161 283e
000000b0: ded6 84bd f9e9 fdbd c839 8cbe f7c4 dd3c
000000c0: 4114 41be 69e9 afbe fbcf 4bbe 5698 ed3e
000000d0: a815 693e 4ef7 23bf 0bb2 803e 1d88 173d
000000e0: 6c53 37be 1b37 d9be 18c1 81bc f699 ce3d
000000f0: 72e5 c4be e672 233c dee7 c63d e314 d43e
00000100: 95b7 af3c a980 993e b309 3b3d 82f1 d33d
00000110: 4540 66be 06b9 f0bd 2f5d 48bd fa90 9ebd
00000120: c66c 133e 87c2 b73b 00eb 803e ac7f 2c3e
00000130: 4f79 82bd 0bea 923e 4662 96bc eba4 4a3e
00000140: 49b9 15be 655a 193d e659 31be 766a 273e
00000150: 50d2 d83d 2468 63be d916 c33e c2c0 0e3e
00000160: f640 a2be 316d d2bd 0ac4 94be db1e 6e3d
00000170: 7498 7fbe b19e bdbd bd15 3ebf 6897 ff3c
00000180: ba10 e4be cddb 813e 2a18 0d3e 4313 a93e
00000190: 2d23 f13e ed8f a0be dcc5 393e 5480 e63e
000001a0: 5bcf e6be c188 f7be 4c33 8a3e c8f5 353e
000001b0: 3c8a c4be 2966 dcbe 663f 64be 5494 db3e
000001c0: f51a 54be 89be 6e3e 019d 4a3e 3268 bb3e
000001d0: eca0 86be de31 e6bd 4fe9 bd3d 3c38 8e3e
000001e0: 83f5 bbbd e840 b63b 4c4f 70be d00d 543b
000001f0: e4f0 9d3e 465e e63e 23f1 4ebe e798 d63e
00000200: 3f75 f6be fb54 a4be 69ce c4bd ad35 1c3e
00000210: d8f3 8d3e 5b7c 3dbe 5be2 9f3e 2b1e 803e
00000220: 651a a4be f30d b7be 3ef3 9dbd 6d02 903c
00000230: 407e 23be 2520 7b3d 7790 7ebe a2f3 b9ba
00000240: c372 13bf f6bd 6a3d 86d8 3a3b da0e 383e
00000250: 4401 eb3e 55e0 78be 05f5 853e 5281 c43e
00000260: f288 bfbe 75d9 aebe 10f1 2f3e 24dc 2c3e
00000270: 5c09 91bd 1df7 933d d195 923d 7c93 06be
00000280: d9f0 263d 520e dd3e 67e7 b5bb 0b7c 923c
00000290: fcb6 5c3e eeb8 3d3e 771a 0e3e 2701 b53d
000002a0: 3ad5 c13d 5086 babe d263 e43d 65f4 3c3f
000002b0: 9826 3abf 3123 6fbf 56a9 3bbe 2940 5e3d
000002c0: b762 ffbd db4e bb3e a1f3 a23e 544c 93bc
000002d0: b467 e03e e6b8 94be 2156 963d 3431 c23e
000002e0: 0393 ed3c 2d94 35be 0a18 32bd 0fdb 813e
000002f0: 044d e5be fbe6 afbe a194 bbbd 8f91 3e3e
00000300: 75a6 e53e b79d a13e 0135 163f 9664 9ebd
00000310: ea29 2bbe ddd7 d13d 7b49 423d 0661 213e
00000320: 9051 0dbe 3157 3f3e 2f04 af3d 3788 693e
00000330: 15ea b0bd 8872 25be fa97 87be f563 883d
00000340: 5e3a 523e c5f9 393f 425c 183f 48fa a2bd
00000350: e5f1 18be 999e e83e 555a bf3d 4a18 903d
00000360: b384 3e3e 7cbb 64bd 721d 113f 74f7 1f3f
00000370: ade6 8fbe b829 b1bd 5ecd 81be ab8f 08be
00000380: c6d6 873e ef8e 093f 5c3a 0a3f 6893 0d3e
00000390: e41f 2a3d e23f 053f 63e1 56bd 20bb 10be
000003a0: a4ec 0c3e b810 06be c76f a03e 4be2 c33e
000003b0: ea87 6dbe 41e3 a6bd 7bc8 0fbe ee2d 18bf
000003c0: a4c4 0fbe 599d 133f af55 e7be 6a68 0d3f
000003d0: 1ef6 9c3e 44be d6be 3ac7 a33e ce68 ca3e
000003e0: 42b3 62be 1687 f5bd 8b7b 1e3e 8391 cc3d
000003f0: e3e2 03bf da2c 95be 13da e3be ec22 d83e

bias_ih_l0 f4 [48]
0.3139219 0.2693559 0.3367973 0.39190078 -0.069769345 0.27434075 0.3975506 -0.090567134
0.07482577 0.20621918 0.025053216 0.1050153 -0.29517776 -0.27308467 -0.25872856 0.3397717
-0.3071653 0.32309115 -0.19024861 -0.19370697 0.24554978 -0.033818558 0.0739234 0.2905369
0.19023544 0.3467884 0.10845569 0.3003471 0.44979987 0.3176058 0.6364621 0.161457
-0.4540345 -0.29592612 -0.1826238 0.12795359 0.10221015 -0.3707223 0.2945883 0.19541976
-0.27142784 -0.35774848 0.06457227 -0.016334182 0.36341864 -0.019435847 0.17664593 -0.054962102
00000000: 5fba a03e 04e9 893e b270 ac3e 38a7 c83e
00000010: 3be3 8ebd 6476 8c3e c18b cb3e 437b b9bd
00000020: 413e 993d 1f2b 533e 673c cd3c 4312 d73d
00000030: 8a21 97be c1d1 8bbe 1278 84be 8ef6 ad3e
00000040: c544 9dbe 346c a53e 88d0 42be 1f5b 46be
00000050: 6771 7b3e 5485 0abd 2765 973d 41c1 943e
00000060: 14cd 423e 408e b13e 041e de3d 18c7 993e
00000070: 2b4c e63e 3a9d a23e 2eef 223f fc54 253e
00000080: 3677 e8be a183 97be bc01 3bbe 4406 033e
00000090: 8e53 d13d 50cf bdbe 47d4 963e 1e1c 483e
000000a0: 97f8 8abe cf2a b7be 773e 843d 43cf 85bc
000000b0: 0212 ba3e ed37 9fbc ace2 343e f11f 61bd

bias_hh_l0 f4 [48]
0.23288862 0.5484514 0.20265791 0.28162605 0.18300898 0.039419238 0.38643315 0.22102357
0.46748343 0.02709394 0.2756836 0.07782786 -0.3625941 -0.08444107 0.0752868 0.5448761
-0.31237668 0.36067522 -0.013324464 0.18233453 0.3113564 0.08665086 0.36683324 0.21348797
0.4291009 0.22162183 0.3609706 0.40798074 0.24271454 0.37007713 0.75324523 -0.2262598
-0.43441132 -0.28084984 -0.26592267 0.3928336 -0.13459617 0.08654093 -0.039671216 0.1572521
-0.1888376 -0.3174873 0.12869123 -0.05611899 -0.00023900467 0.077555805 0.14712562 0.111246236
00000000: 5b7a 6e3e 5067 0c3f 8e85 4f3e 4a31 903e
00000010: b566 3b3e 1176 213d 91da c53e 0154 623e
00000020: fd59 ef3e 1cf4 dd3c 6726 8d3e 3764 9f3d
00000030: efa5 b9be 71ef acbd f72f 9a3d 007d 0b3f
00000040: d6ef 9fbe 6caa b83e da4e 5abc e7b5 3a3e
00000050: 1b6a 9f3e 0276 b13d 91d1 bb3e 979c 5a3e
00000060: 1db3 db3e d5f0 623e 23d1 b83e dae2 d03e
00000070: 298a 783e c07a bd3e aed4 403f a6b0 67be
00000080: 296b debe 8dcb 8fbe 0427 88be 7c21 c93e
00000090: 94d3 09be 5f3c b13d 497e 22bd b206 213e
000000a0: a55e 41be b28d a2be a2c7 033e 07dd 65bd
000000b0: 549d 7ab9 94d5 9e3d 19a8 163e 11d5 e33d

weight f4 [5, 16]
-0.43435115 0.74926215 0.022180825 0.70567673 0.51403934 -0.91117465 0.8322752 0.41340688
-0.4415611 -0.47114757 0.13434884 0.4859358 -0.33933863 -0.36327446 0.14319175 0.8090324
0.54584503 -0.6549647 0.67702776 0.32833785 0.0679676 0.42677882 -0.21139854 0.23556307
-0.11592245 0.11495766 0.39772332 0.028340168 -0.31877792 0.092312984 -0.59202427 -1.1683373
0.20791109 -0.070920326 -0.802298 -1.5626092 -0.88290036 0.3389945 -1.0298018 -1.3150344
1.0735564 0.960684 -0.53474325 -0.6267237 0.87145454 0.69989824 0.5046851 0.20561215
0.16813327 -0.21665931 -0.35380858 -1.9274098 -0.98784083 0.46270317 -0.9144046 -1.3800185
0.8256387 0.84241766 -0.95331144 -0.77843636 0.44640264 0.62841904 0.43317854 0.30408576
-0.05805008 -0.24468349 -0.56258214 -1.5463023 -0.5899332 0.34968543 -1.0927137 -1.3266498
0.79193264 0.839861 -0.71746784 -0.9133833 0.67947805 0.8223437 0.414064 0.19049273
00000000: 4663 debe a5cf 3f3f 90b4 b53c 3ba7 343f
00000010: 1598 033f be42 69bf fd0f 553f 11aa d33e
00000020: 4c14 e2be 413a f1be be92 093e 94cc f83e
00000030: cbbd adbe 1cff b9be dca0 123e bf1c 4f3f
00000040: 80bc 0b3f c4ab 27bf b151 2d3f e61b a83e
00000050: 9932 8b3d c182 da3e dc78 58be 7237 713e
00000060: c068 edbd ec6e eb3d 64a2 cb3e a429 e83c
00000070: dc36 a3be 970e bd3d e78e 17bf 148c 95bf
00000080: a5e6 543e ad3e 91bd 6763 4dbf 9403 c8bf
00000090: c205 62bf b090 ad3e 8cd0 83bf 0c53 a8bf
000000a0: 4c6a 893f 63ef 753f efe4 08bf f770 20bf
000000b0: a517 5f3f 882c 333f 0b33 013f fe8b 523e
000000c0: 212b 2c3e f0db 5dbe 6626 b5be 5db5 f6bf
000000d0: 23e3 7cbf 6ee7 ec3e 6b16 6abf 72a4 b0bf
000000e0: 0f5d 533f afa8 573f 380c 74bf 9b47 47bf
000000f0: e38e e43e 12e0 203f 94c9 dd3e 21b1 9b3e
00000100: ecc5 6dbd 4f8e 7abe 6205 10bf 3ced c5bf
00000110: dd05 17bf f809 b33e 0bde 8bbf a9cf a9bf
00000120: 19bc 4a3f 2101 573f f9ab 37bf 7dd3 69bf
00000130: 46f2 2d3f 1e85 523f 3200 d43e 8710 433e

bias f4 [5]
0.14813523 -0.11476258 -0.57511765 -0.7350764 -0.8656444
00000000: c3b0 173e a508 ebbd e93a 13bf f82d 3cbf
00000010: df9a 5dbf
